{"Layers": [{
  "Name": "QuantizeLinear_3",
  "LayerType": "Reformat",
  "Inputs": [
  {
    "Name": "img",
    "Location": "Device",
    "Dimensions": [1,4,3,256,704],
    "Format/Datatype": "Row major linear FP16 format"
  }],
  "Outputs": [
  {
    "Name": "438",
    "Location": "Device",
    "Dimensions": [1,4,3,256,704],
    "Format/Datatype": "Row major Int8 format"
  }],
  "ParameterType": "Reformat",
  "Origin": "QDQ",
  "TacticValue": "0x00000000000003e8",
  "StreamId": 0,
  "Metadata": ""
},{
  "Name": "QuantizeLinear_783",
  "LayerType": "Reformat",
  "Inputs": [
  {
    "Name": "depth",
    "Location": "Device",
    "Dimensions": [1,4,1,256,704],
    "Format/Datatype": "Row major linear FP16 format"
  }],
  "Outputs": [
  {
    "Name": "1366",
    "Location": "Device",
    "Dimensions": [1,4,1,256,704],
    "Format/Datatype": "Row major Int8 format"
  }],
  "ParameterType": "Reformat",
  "Origin": "QDQ",
  "TacticValue": "0x0000000000000000",
  "StreamId": 0,
  "Metadata": ""
},{
  "Name": "Reshape_0",
  "LayerType": "NoOp",
  "Inputs": [
  {
    "Name": "438",
    "Location": "Device",
    "Dimensions": [1,4,3,256,704],
    "Format/Datatype": "Row major Int8 format"
  }],
  "Outputs": [
  {
    "Name": "441",
    "Location": "Device",
    "Dimensions": [4,3,256,704],
    "Format/Datatype": "Row major Int8 format"
  }],
  "TacticValue": "0x0000000000000000",
  "StreamId": 0,
  "Metadata": "[ONNX Layer: Reshape_0]"
},{
  "Name": "Reshape_778",
  "LayerType": "NoOp",
  "Inputs": [
  {
    "Name": "1366",
    "Location": "Device",
    "Dimensions": [1,4,1,256,704],
    "Format/Datatype": "Row major Int8 format"
  }],
  "Outputs": [
  {
    "Name": "1371",
    "Location": "Device",
    "Dimensions": [4,1,256,704],
    "Format/Datatype": "Row major Int8 format"
  }],
  "TacticValue": "0x0000000000000000",
  "StreamId": 0,
  "Metadata": "[ONNX Layer: Reshape_778]"
},{
  "Name": "Reformatting CopyNode for Input Tensor 0 to model.encoders.camera.vtransform.dtransform.0.weight + QuantizeLinear_788 + Conv_790 + Relu_791",
  "LayerType": "Reformat",
  "Inputs": [
  {
    "Name": "1371",
    "Location": "Device",
    "Dimensions": [4,1,256,704],
    "Format/Datatype": "Row major Int8 format"
  }],
  "Outputs": [
  {
    "Name": "Reformatted Input Tensor 0 to model.encoders.camera.vtransform.dtransform.0.weight + QuantizeLinear_788 + Conv_790 + Relu_791",
    "Location": "Device",
    "Dimensions": [4,1,256,704],
    "Format/Datatype": "Four wide channel vectorized row major Int8 format"
  }],
  "ParameterType": "Reformat",
  "Origin": "REFORMAT",
  "TacticValue": "0x00000000000003ea",
  "StreamId": 0,
  "Metadata": ""
},{
  "Name": "model.encoders.camera.vtransform.dtransform.0.weight + QuantizeLinear_788 + Conv_790 + Relu_791",
  "LayerType": "CaskConvolution",
  "Inputs": [
  {
    "Name": "Reformatted Input Tensor 0 to model.encoders.camera.vtransform.dtransform.0.weight + QuantizeLinear_788 + Conv_790 + Relu_791",
    "Location": "Device",
    "Dimensions": [4,1,256,704],
    "Format/Datatype": "Four wide channel vectorized row major Int8 format"
  }],
  "Outputs": [
  {
    "Name": "1384",
    "Location": "Device",
    "Dimensions": [4,8,256,704],
    "Format/Datatype": "Four wide channel vectorized row major Int8 format"
  }],
  "ParameterType": "Convolution",
  "Kernel": [1,1],
  "PaddingMode": "kEXPLICIT_ROUND_DOWN",
  "PrePadding": [0,0],
  "PostPadding": [0,0],
  "Stride": [1,1],
  "Dilation": [1,1],
  "OutMaps": 8,
  "Groups": 1,
  "Weights": {"Type": "Int8", "Count": 8},
  "Bias": {"Type": "Float", "Count": 8},
  "HasSparseWeights": 0,
  "HasDynamicFilter": 0,
  "HasDynamicBias": 0,
  "HasResidual": 0,
  "ConvXAsActInputIdx": -1,
  "BiasAsActInputIdx": -1,
  "ResAsActInputIdx": -1,
  "Activation": "RELU",
  "HasBias": 1,
  "HasReLU": 1,
  "TacticName": "ampere_int8x4_icudnn_int8x4_128x32_relu_interior_nn_v1",
  "TacticValue": "0xd1d72dad018b082d",
  "StreamId": 0,
  "Metadata": "[ONNX Layer: Conv_790][ONNX Layer: Relu_791]"
},{
  "Name": "model.encoders.camera.backbone.conv1.weight + QuantizeLinear_8 + Conv_10 + Relu_11 + MaxPool_12",
  "LayerType": "CaskConvActPool",
  "Inputs": [
  {
    "Name": "441",
    "Location": "Device",
    "Dimensions": [4,3,256,704],
    "Format/Datatype": "Row major Int8 format"
  }],
  "Outputs": [
  {
    "Name": "455",
    "Location": "Device",
    "Dimensions": [4,64,64,176],
    "Format/Datatype": "Thirty-two wide channel vectorized row major Int8 format"
  }],
  "ParameterType": "ConvActPool",
  "ConvParameterType": "Convolution",
  "ConvKernel": [7,7],
  "ConvPaddingMode": "kEXPLICIT_ROUND_DOWN",
  "ConvPrePadding": [3,3],
  "ConvPostPadding": [3,3],
  "ConvStride": [2,2],
  "ConvDilation": [1,1],
  "ConvOutMaps": 64,
  "ConvGroups": 1,
  "ConvWeights": {"Type": "Int8", "Count": 9408},
  "ConvBias": {"Type": "Float", "Count": 64},
  "ConvHasSparseWeights": 0,
  "ConvHasDynamicFilter": 0,
  "ConvHasDynamicBias": 0,
  "ConvHasResidual": 0,
  "ConvConvXAsActInputIdx": -1,
  "ConvBiasAsActInputIdx": -1,
  "ConvResAsActInputIdx": -1,
  "ConvActivation": "RELU",
  "PoolingParameterType": "Pooling",
  "PoolingPoolingType": "MAX",
  "PoolingWindowSize": [3,3],
  "PoolingPaddingMode": "kEXPLICIT_ROUND_DOWN",
  "PoolingPrePadding": [1,1],
  "PoolingPostPadding": [1,1],
  "PoolingStride": [2,2],
  "PoolingBlendFactor": 0,
  "PoolingAverageCountExcludesPadding": 1,
  "TacticValue": "0xb71c75095873646c",
  "StreamId": 0,
  "Metadata": "[ONNX Layer: Conv_10][ONNX Layer: Relu_11][ONNX Layer: MaxPool_12]"
},{
  "Name": "model.encoders.camera.vtransform.dtransform.3.weight + QuantizeLinear_799 + Conv_801 + Relu_802",
  "LayerType": "CaskConvolution",
  "Inputs": [
  {
    "Name": "1384",
    "Location": "Device",
    "Dimensions": [4,8,256,704],
    "Format/Datatype": "Four wide channel vectorized row major Int8 format"
  }],
  "Outputs": [
  {
    "Name": "1397",
    "Location": "Device",
    "Dimensions": [4,32,64,176],
    "Format/Datatype": "Thirty-two wide channel vectorized row major Int8 format"
  }],
  "ParameterType": "Convolution",
  "Kernel": [5,5],
  "PaddingMode": "kEXPLICIT_ROUND_DOWN",
  "PrePadding": [2,2],
  "PostPadding": [2,2],
  "Stride": [4,4],
  "Dilation": [1,1],
  "OutMaps": 32,
  "Groups": 1,
  "Weights": {"Type": "Int8", "Count": 6400},
  "Bias": {"Type": "Float", "Count": 32},
  "HasSparseWeights": 0,
  "HasDynamicFilter": 0,
  "HasDynamicBias": 0,
  "HasResidual": 0,
  "ConvXAsActInputIdx": -1,
  "BiasAsActInputIdx": -1,
  "ResAsActInputIdx": -1,
  "Activation": "RELU",
  "HasBias": 1,
  "HasReLU": 1,
  "TacticName": "ampere_int8x4_icudnn_int8x4_128x32_relu_medium_c32_nn_v1",
  "TacticValue": "0xeb494e2e67f079d4",
  "StreamId": 0,
  "Metadata": "[ONNX Layer: Conv_801][ONNX Layer: Relu_802]"
},{
  "Name": "model.encoders.camera.backbone.layer1.0.conv1.weight + QuantizeLinear_20 + Conv_22 + Relu_23",
  "LayerType": "CaskConvolution",
  "Inputs": [
  {
    "Name": "455",
    "Location": "Device",
    "Dimensions": [4,64,64,176],
    "Format/Datatype": "Thirty-two wide channel vectorized row major Int8 format"
  }],
  "Outputs": [
  {
    "Name": "468",
    "Location": "Device",
    "Dimensions": [4,64,64,176],
    "Format/Datatype": "Thirty-two wide channel vectorized row major Int8 format"
  }],
  "ParameterType": "Convolution",
  "Kernel": [1,1],
  "PaddingMode": "kEXPLICIT_ROUND_DOWN",
  "PrePadding": [0,0],
  "PostPadding": [0,0],
  "Stride": [1,1],
  "Dilation": [1,1],
  "OutMaps": 64,
  "Groups": 1,
  "Weights": {"Type": "Int8", "Count": 4096},
  "Bias": {"Type": "Float", "Count": 64},
  "HasSparseWeights": 0,
  "HasDynamicFilter": 0,
  "HasDynamicBias": 0,
  "HasResidual": 0,
  "ConvXAsActInputIdx": -1,
  "BiasAsActInputIdx": -1,
  "ResAsActInputIdx": -1,
  "Activation": "RELU",
  "HasBias": 1,
  "HasReLU": 1,
  "TacticName": "sm80_xmma_fprop_implicit_gemm_interleaved_i8i8_i8i32_f32_nchw_vect_c_32kcrs_vect_c_32_nchw_vect_c_32_tilesize192x64x64_stage3_warpsize4x1x1_g1_tensor16x8x32_simple_t1r1s1",
  "TacticValue": "0xa086b8faeb42b254",
  "StreamId": 0,
  "Metadata": "[ONNX Layer: Conv_22][ONNX Layer: Relu_23]"
},{
  "Name": "model.encoders.camera.backbone.layer1.0.downsample.0.weight + QuantizeLinear_52 + Conv_54",
  "LayerType": "CaskConvolution",
  "Inputs": [
  {
    "Name": "455",
    "Location": "Device",
    "Dimensions": [4,64,64,176],
    "Format/Datatype": "Thirty-two wide channel vectorized row major Int8 format"
  }],
  "Outputs": [
  {
    "Name": "505",
    "Location": "Device",
    "Dimensions": [4,256,64,176],
    "Format/Datatype": "Thirty-two wide channel vectorized row major Int8 format"
  }],
  "ParameterType": "Convolution",
  "Kernel": [1,1],
  "PaddingMode": "kEXPLICIT_ROUND_DOWN",
  "PrePadding": [0,0],
  "PostPadding": [0,0],
  "Stride": [1,1],
  "Dilation": [1,1],
  "OutMaps": 256,
  "Groups": 1,
  "Weights": {"Type": "Int8", "Count": 16384},
  "Bias": {"Type": "Float", "Count": 256},
  "HasSparseWeights": 0,
  "HasDynamicFilter": 0,
  "HasDynamicBias": 0,
  "HasResidual": 0,
  "ConvXAsActInputIdx": -1,
  "BiasAsActInputIdx": -1,
  "ResAsActInputIdx": -1,
  "Activation": "NONE",
  "HasBias": 1,
  "HasReLU": 0,
  "TacticName": "sm80_xmma_fprop_implicit_gemm_interleaved_i8i8_i8i32_f32_nchw_vect_c_32kcrs_vect_c_32_nchw_vect_c_32_tilesize96x128x64_stage3_warpsize2x2x1_g1_tensor16x8x32_simple_t1r1s1",
  "TacticValue": "0x764ba04bb839d539",
  "StreamId": 0,
  "Metadata": "[ONNX Layer: Conv_54]"
},{
  "Name": "model.encoders.camera.vtransform.dtransform.6.weight + QuantizeLinear_810 + Conv_812 + Relu_813",
  "LayerType": "CaskConvolution",
  "Inputs": [
  {
    "Name": "1397",
    "Location": "Device",
    "Dimensions": [4,32,64,176],
    "Format/Datatype": "Thirty-two wide channel vectorized row major Int8 format"
  }],
  "Outputs": [
  {
    "Name": "1411",
    "Location": "Device",
    "Dimensions": [4,64,32,88],
    "Format/Datatype": "Thirty-two wide channel vectorized row major Int8 format"
  }],
  "ParameterType": "Convolution",
  "Kernel": [5,5],
  "PaddingMode": "kEXPLICIT_ROUND_DOWN",
  "PrePadding": [2,2],
  "PostPadding": [2,2],
  "Stride": [2,2],
  "Dilation": [1,1],
  "OutMaps": 64,
  "Groups": 1,
  "Weights": {"Type": "Int8", "Count": 51200},
  "Bias": {"Type": "Float", "Count": 64},
  "HasSparseWeights": 0,
  "HasDynamicFilter": 0,
  "HasDynamicBias": 0,
  "HasResidual": 0,
  "ConvXAsActInputIdx": -1,
  "BiasAsActInputIdx": -1,
  "ResAsActInputIdx": -1,
  "Activation": "RELU",
  "HasBias": 1,
  "HasReLU": 1,
  "TacticName": "sm80_xmma_fprop_implicit_gemm_interleaved_i8i8_i8i32_f32_nchw_vect_c_32kcrs_vect_c_32_nchw_vect_c_32_tilesize192x64x64_stage3_warpsize4x1x1_g1_tensor16x8x32_t1r5s5",
  "TacticValue": "0xe26d490273886882",
  "StreamId": 0,
  "Metadata": "[ONNX Layer: Conv_812][ONNX Layer: Relu_813]"
},{
  "Name": "model.encoders.camera.backbone.layer1.0.conv2.weight + QuantizeLinear_31 + Conv_33 + Relu_34",
  "LayerType": "CaskConvolution",
  "Inputs": [
  {
    "Name": "468",
    "Location": "Device",
    "Dimensions": [4,64,64,176],
    "Format/Datatype": "Thirty-two wide channel vectorized row major Int8 format"
  }],
  "Outputs": [
  {
    "Name": "481",
    "Location": "Device",
    "Dimensions": [4,64,64,176],
    "Format/Datatype": "Thirty-two wide channel vectorized row major Int8 format"
  }],
  "ParameterType": "Convolution",
  "Kernel": [3,3],
  "PaddingMode": "kEXPLICIT_ROUND_DOWN",
  "PrePadding": [1,1],
  "PostPadding": [1,1],
  "Stride": [1,1],
  "Dilation": [1,1],
  "OutMaps": 64,
  "Groups": 1,
  "Weights": {"Type": "Int8", "Count": 36864},
  "Bias": {"Type": "Float", "Count": 64},
  "HasSparseWeights": 0,
  "HasDynamicFilter": 0,
  "HasDynamicBias": 0,
  "HasResidual": 0,
  "ConvXAsActInputIdx": -1,
  "BiasAsActInputIdx": -1,
  "ResAsActInputIdx": -1,
  "Activation": "RELU",
  "HasBias": 1,
  "HasReLU": 1,
  "TacticName": "sm80_xmma_fprop_implicit_gemm_interleaved_i8i8_i8i32_f32_nchw_vect_c_32kcrs_vect_c_32_nchw_vect_c_32_tilesize192x64x64_stage3_warpsize4x1x1_g1_tensor16x8x32_t1r3s3",
  "TacticValue": "0xef01fb6e433afa50",
  "StreamId": 0,
  "Metadata": "[ONNX Layer: Conv_33][ONNX Layer: Relu_34]"
},{
  "Name": "model.encoders.camera.backbone.layer1.0.conv3.weight + QuantizeLinear_42 + Conv_44 + Add_61 + Relu_62",
  "LayerType": "CaskConvolution",
  "Inputs": [
  {
    "Name": "481",
    "Location": "Device",
    "Dimensions": [4,64,64,176],
    "Format/Datatype": "Thirty-two wide channel vectorized row major Int8 format"
  },
  {
    "Name": "505",
    "Location": "Device",
    "Dimensions": [4,256,64,176],
    "Format/Datatype": "Thirty-two wide channel vectorized row major Int8 format"
  }],
  "Outputs": [
  {
    "Name": "513",
    "Location": "Device",
    "Dimensions": [4,256,64,176],
    "Format/Datatype": "Thirty-two wide channel vectorized row major Int8 format"
  }],
  "ParameterType": "Convolution",
  "Kernel": [1,1],
  "PaddingMode": "kEXPLICIT_ROUND_DOWN",
  "PrePadding": [0,0],
  "PostPadding": [0,0],
  "Stride": [1,1],
  "Dilation": [1,1],
  "OutMaps": 256,
  "Groups": 1,
  "Weights": {"Type": "Int8", "Count": 16384},
  "Bias": {"Type": "Float", "Count": 256},
  "HasSparseWeights": 0,
  "HasDynamicFilter": 0,
  "HasDynamicBias": 0,
  "HasResidual": 1,
  "ConvXAsActInputIdx": -1,
  "BiasAsActInputIdx": -1,
  "ResAsActInputIdx": -1,
  "Activation": "RELU",
  "HasBias": 1,
  "HasReLU": 1,
  "TacticName": "sm80_xmma_fprop_implicit_gemm_interleaved_i8i8_i8i32_f32_nchw_vect_c_32kcrs_vect_c_32_nchw_vect_c_32_tilesize96x64x64_stage3_warpsize2x2x1_g1_tensor16x8x32_simple_t1r1s1",
  "TacticValue": "0x483ad1560c6e5e27",
  "StreamId": 0,
  "Metadata": "[ONNX Layer: Conv_44][ONNX Layer: Add_61][ONNX Layer: Relu_62]"
},{
  "Name": "model.encoders.camera.backbone.layer1.1.conv1.weight + QuantizeLinear_70 + Conv_72 + Relu_73",
  "LayerType": "CaskConvolution",
  "Inputs": [
  {
    "Name": "513",
    "Location": "Device",
    "Dimensions": [4,256,64,176],
    "Format/Datatype": "Thirty-two wide channel vectorized row major Int8 format"
  }],
  "Outputs": [
  {
    "Name": "526",
    "Location": "Device",
    "Dimensions": [4,64,64,176],
    "Format/Datatype": "Thirty-two wide channel vectorized row major Int8 format"
  }],
  "ParameterType": "Convolution",
  "Kernel": [1,1],
  "PaddingMode": "kEXPLICIT_ROUND_DOWN",
  "PrePadding": [0,0],
  "PostPadding": [0,0],
  "Stride": [1,1],
  "Dilation": [1,1],
  "OutMaps": 64,
  "Groups": 1,
  "Weights": {"Type": "Int8", "Count": 16384},
  "Bias": {"Type": "Float", "Count": 64},
  "HasSparseWeights": 0,
  "HasDynamicFilter": 0,
  "HasDynamicBias": 0,
  "HasResidual": 0,
  "ConvXAsActInputIdx": -1,
  "BiasAsActInputIdx": -1,
  "ResAsActInputIdx": -1,
  "Activation": "RELU",
  "HasBias": 1,
  "HasReLU": 1,
  "TacticName": "sm80_xmma_fprop_implicit_gemm_interleaved_i8i8_i8i32_f32_nchw_vect_c_32kcrs_vect_c_32_nchw_vect_c_32_tilesize96x64x64_stage3_warpsize2x2x1_g1_tensor16x8x32_simple_t1r1s1",
  "TacticValue": "0x483ad1560c6e5e27",
  "StreamId": 0,
  "Metadata": "[ONNX Layer: Conv_72][ONNX Layer: Relu_73]"
},{
  "Name": "model.encoders.camera.backbone.layer1.1.conv2.weight + QuantizeLinear_81 + Conv_83 + Relu_84",
  "LayerType": "CaskConvolution",
  "Inputs": [
  {
    "Name": "526",
    "Location": "Device",
    "Dimensions": [4,64,64,176],
    "Format/Datatype": "Thirty-two wide channel vectorized row major Int8 format"
  }],
  "Outputs": [
  {
    "Name": "539",
    "Location": "Device",
    "Dimensions": [4,64,64,176],
    "Format/Datatype": "Thirty-two wide channel vectorized row major Int8 format"
  }],
  "ParameterType": "Convolution",
  "Kernel": [3,3],
  "PaddingMode": "kEXPLICIT_ROUND_DOWN",
  "PrePadding": [1,1],
  "PostPadding": [1,1],
  "Stride": [1,1],
  "Dilation": [1,1],
  "OutMaps": 64,
  "Groups": 1,
  "Weights": {"Type": "Int8", "Count": 36864},
  "Bias": {"Type": "Float", "Count": 64},
  "HasSparseWeights": 0,
  "HasDynamicFilter": 0,
  "HasDynamicBias": 0,
  "HasResidual": 0,
  "ConvXAsActInputIdx": -1,
  "BiasAsActInputIdx": -1,
  "ResAsActInputIdx": -1,
  "Activation": "RELU",
  "HasBias": 1,
  "HasReLU": 1,
  "TacticName": "sm80_xmma_fprop_implicit_gemm_interleaved_i8i8_i8i32_f32_nchw_vect_c_32kcrs_vect_c_32_nchw_vect_c_32_tilesize192x64x64_stage3_warpsize4x1x1_g1_tensor16x8x32_t1r3s3",
  "TacticValue": "0xef01fb6e433afa50",
  "StreamId": 0,
  "Metadata": "[ONNX Layer: Conv_83][ONNX Layer: Relu_84]"
},{
  "Name": "model.encoders.camera.backbone.layer1.1.conv3.weight + QuantizeLinear_92 + Conv_94 + Add_101 + Relu_102",
  "LayerType": "CaskConvolution",
  "Inputs": [
  {
    "Name": "539",
    "Location": "Device",
    "Dimensions": [4,64,64,176],
    "Format/Datatype": "Thirty-two wide channel vectorized row major Int8 format"
  },
  {
    "Name": "513",
    "Location": "Device",
    "Dimensions": [4,256,64,176],
    "Format/Datatype": "Thirty-two wide channel vectorized row major Int8 format"
  }],
  "Outputs": [
  {
    "Name": "559",
    "Location": "Device",
    "Dimensions": [4,256,64,176],
    "Format/Datatype": "Thirty-two wide channel vectorized row major Int8 format"
  }],
  "ParameterType": "Convolution",
  "Kernel": [1,1],
  "PaddingMode": "kEXPLICIT_ROUND_DOWN",
  "PrePadding": [0,0],
  "PostPadding": [0,0],
  "Stride": [1,1],
  "Dilation": [1,1],
  "OutMaps": 256,
  "Groups": 1,
  "Weights": {"Type": "Int8", "Count": 16384},
  "Bias": {"Type": "Float", "Count": 256},
  "HasSparseWeights": 0,
  "HasDynamicFilter": 0,
  "HasDynamicBias": 0,
  "HasResidual": 1,
  "ConvXAsActInputIdx": -1,
  "BiasAsActInputIdx": -1,
  "ResAsActInputIdx": -1,
  "Activation": "RELU",
  "HasBias": 1,
  "HasReLU": 1,
  "TacticName": "sm80_xmma_fprop_implicit_gemm_interleaved_i8i8_i8i32_f32_nchw_vect_c_32kcrs_vect_c_32_nchw_vect_c_32_tilesize96x64x64_stage3_warpsize2x2x1_g1_tensor16x8x32_simple_t1r1s1",
  "TacticValue": "0x483ad1560c6e5e27",
  "StreamId": 0,
  "Metadata": "[ONNX Layer: Conv_94][ONNX Layer: Add_101][ONNX Layer: Relu_102]"
},{
  "Name": "model.encoders.camera.backbone.layer1.2.conv1.weight + QuantizeLinear_110 + Conv_112 + Relu_113",
  "LayerType": "CaskConvolution",
  "Inputs": [
  {
    "Name": "559",
    "Location": "Device",
    "Dimensions": [4,256,64,176],
    "Format/Datatype": "Thirty-two wide channel vectorized row major Int8 format"
  }],
  "Outputs": [
  {
    "Name": "572",
    "Location": "Device",
    "Dimensions": [4,64,64,176],
    "Format/Datatype": "Thirty-two wide channel vectorized row major Int8 format"
  }],
  "ParameterType": "Convolution",
  "Kernel": [1,1],
  "PaddingMode": "kEXPLICIT_ROUND_DOWN",
  "PrePadding": [0,0],
  "PostPadding": [0,0],
  "Stride": [1,1],
  "Dilation": [1,1],
  "OutMaps": 64,
  "Groups": 1,
  "Weights": {"Type": "Int8", "Count": 16384},
  "Bias": {"Type": "Float", "Count": 64},
  "HasSparseWeights": 0,
  "HasDynamicFilter": 0,
  "HasDynamicBias": 0,
  "HasResidual": 0,
  "ConvXAsActInputIdx": -1,
  "BiasAsActInputIdx": -1,
  "ResAsActInputIdx": -1,
  "Activation": "RELU",
  "HasBias": 1,
  "HasReLU": 1,
  "TacticName": "sm80_xmma_fprop_implicit_gemm_interleaved_i8i8_i8i32_f32_nchw_vect_c_32kcrs_vect_c_32_nchw_vect_c_32_tilesize96x64x64_stage3_warpsize2x2x1_g1_tensor16x8x32_simple_t1r1s1",
  "TacticValue": "0x483ad1560c6e5e27",
  "StreamId": 0,
  "Metadata": "[ONNX Layer: Conv_112][ONNX Layer: Relu_113]"
},{
  "Name": "model.encoders.camera.backbone.layer1.2.conv2.weight + QuantizeLinear_121 + Conv_123 + Relu_124",
  "LayerType": "CaskConvolution",
  "Inputs": [
  {
    "Name": "572",
    "Location": "Device",
    "Dimensions": [4,64,64,176],
    "Format/Datatype": "Thirty-two wide channel vectorized row major Int8 format"
  }],
  "Outputs": [
  {
    "Name": "585",
    "Location": "Device",
    "Dimensions": [4,64,64,176],
    "Format/Datatype": "Thirty-two wide channel vectorized row major Int8 format"
  }],
  "ParameterType": "Convolution",
  "Kernel": [3,3],
  "PaddingMode": "kEXPLICIT_ROUND_DOWN",
  "PrePadding": [1,1],
  "PostPadding": [1,1],
  "Stride": [1,1],
  "Dilation": [1,1],
  "OutMaps": 64,
  "Groups": 1,
  "Weights": {"Type": "Int8", "Count": 36864},
  "Bias": {"Type": "Float", "Count": 64},
  "HasSparseWeights": 0,
  "HasDynamicFilter": 0,
  "HasDynamicBias": 0,
  "HasResidual": 0,
  "ConvXAsActInputIdx": -1,
  "BiasAsActInputIdx": -1,
  "ResAsActInputIdx": -1,
  "Activation": "RELU",
  "HasBias": 1,
  "HasReLU": 1,
  "TacticName": "sm80_xmma_fprop_implicit_gemm_interleaved_i8i8_i8i32_f32_nchw_vect_c_32kcrs_vect_c_32_nchw_vect_c_32_tilesize192x64x64_stage3_warpsize4x1x1_g1_tensor16x8x32_t1r3s3",
  "TacticValue": "0xef01fb6e433afa50",
  "StreamId": 0,
  "Metadata": "[ONNX Layer: Conv_123][ONNX Layer: Relu_124]"
},{
  "Name": "model.encoders.camera.backbone.layer1.2.conv3.weight + QuantizeLinear_132 + Conv_134 + Add_141 + Relu_142",
  "LayerType": "CaskConvolution",
  "Inputs": [
  {
    "Name": "585",
    "Location": "Device",
    "Dimensions": [4,64,64,176],
    "Format/Datatype": "Thirty-two wide channel vectorized row major Int8 format"
  },
  {
    "Name": "559",
    "Location": "Device",
    "Dimensions": [4,256,64,176],
    "Format/Datatype": "Thirty-two wide channel vectorized row major Int8 format"
  }],
  "Outputs": [
  {
    "Name": "605",
    "Location": "Device",
    "Dimensions": [4,256,64,176],
    "Format/Datatype": "Thirty-two wide channel vectorized row major Int8 format"
  }],
  "ParameterType": "Convolution",
  "Kernel": [1,1],
  "PaddingMode": "kEXPLICIT_ROUND_DOWN",
  "PrePadding": [0,0],
  "PostPadding": [0,0],
  "Stride": [1,1],
  "Dilation": [1,1],
  "OutMaps": 256,
  "Groups": 1,
  "Weights": {"Type": "Int8", "Count": 16384},
  "Bias": {"Type": "Float", "Count": 256},
  "HasSparseWeights": 0,
  "HasDynamicFilter": 0,
  "HasDynamicBias": 0,
  "HasResidual": 1,
  "ConvXAsActInputIdx": -1,
  "BiasAsActInputIdx": -1,
  "ResAsActInputIdx": -1,
  "Activation": "RELU",
  "HasBias": 1,
  "HasReLU": 1,
  "TacticName": "sm80_xmma_fprop_implicit_gemm_interleaved_i8i8_i8i32_f32_nchw_vect_c_32kcrs_vect_c_32_nchw_vect_c_32_tilesize96x64x64_stage3_warpsize2x2x1_g1_tensor16x8x32_simple_t1r1s1",
  "TacticValue": "0x483ad1560c6e5e27",
  "StreamId": 0,
  "Metadata": "[ONNX Layer: Conv_134][ONNX Layer: Add_141][ONNX Layer: Relu_142]"
},{
  "Name": "model.encoders.camera.backbone.layer2.0.conv1.weight + QuantizeLinear_150 + Conv_152 + Relu_153",
  "LayerType": "CaskConvolution",
  "Inputs": [
  {
    "Name": "605",
    "Location": "Device",
    "Dimensions": [4,256,64,176],
    "Format/Datatype": "Thirty-two wide channel vectorized row major Int8 format"
  }],
  "Outputs": [
  {
    "Name": "618",
    "Location": "Device",
    "Dimensions": [4,128,64,176],
    "Format/Datatype": "Thirty-two wide channel vectorized row major Int8 format"
  }],
  "ParameterType": "Convolution",
  "Kernel": [1,1],
  "PaddingMode": "kEXPLICIT_ROUND_DOWN",
  "PrePadding": [0,0],
  "PostPadding": [0,0],
  "Stride": [1,1],
  "Dilation": [1,1],
  "OutMaps": 128,
  "Groups": 1,
  "Weights": {"Type": "Int8", "Count": 32768},
  "Bias": {"Type": "Float", "Count": 128},
  "HasSparseWeights": 0,
  "HasDynamicFilter": 0,
  "HasDynamicBias": 0,
  "HasResidual": 0,
  "ConvXAsActInputIdx": -1,
  "BiasAsActInputIdx": -1,
  "ResAsActInputIdx": -1,
  "Activation": "RELU",
  "HasBias": 1,
  "HasReLU": 1,
  "TacticName": "sm80_xmma_fprop_implicit_gemm_interleaved_i8i8_i8i32_f32_nchw_vect_c_32kcrs_vect_c_32_nchw_vect_c_32_tilesize96x64x64_stage3_warpsize2x2x1_g1_tensor16x8x32_simple_t1r1s1",
  "TacticValue": "0x483ad1560c6e5e27",
  "StreamId": 0,
  "Metadata": "[ONNX Layer: Conv_152][ONNX Layer: Relu_153]"
},{
  "Name": "model.encoders.camera.backbone.layer2.0.downsample.0.weight + QuantizeLinear_182 + Conv_184",
  "LayerType": "CaskConvolution",
  "Inputs": [
  {
    "Name": "605",
    "Location": "Device",
    "Dimensions": [4,256,64,176],
    "Format/Datatype": "Thirty-two wide channel vectorized row major Int8 format"
  }],
  "Outputs": [
  {
    "Name": "655",
    "Location": "Device",
    "Dimensions": [4,512,32,88],
    "Format/Datatype": "Thirty-two wide channel vectorized row major Int8 format"
  }],
  "ParameterType": "Convolution",
  "Kernel": [1,1],
  "PaddingMode": "kEXPLICIT_ROUND_DOWN",
  "PrePadding": [0,0],
  "PostPadding": [0,0],
  "Stride": [2,2],
  "Dilation": [1,1],
  "OutMaps": 512,
  "Groups": 1,
  "Weights": {"Type": "Int8", "Count": 131072},
  "Bias": {"Type": "Float", "Count": 512},
  "HasSparseWeights": 0,
  "HasDynamicFilter": 0,
  "HasDynamicBias": 0,
  "HasResidual": 0,
  "ConvXAsActInputIdx": -1,
  "BiasAsActInputIdx": -1,
  "ResAsActInputIdx": -1,
  "Activation": "NONE",
  "HasBias": 1,
  "HasReLU": 0,
  "TacticName": "sm80_xmma_fprop_implicit_gemm_interleaved_i8i8_i8i32_f32_nchw_vect_c_32kcrs_vect_c_32_nchw_vect_c_32_tilesize96x128x64_stage3_warpsize2x2x1_g1_tensor16x8x32",
  "TacticValue": "0x87620679fb5f37df",
  "StreamId": 0,
  "Metadata": "[ONNX Layer: Conv_184]"
},{
  "Name": "model.encoders.camera.backbone.layer2.0.conv2.weight + QuantizeLinear_161 + Conv_163 + Relu_164",
  "LayerType": "CaskConvolution",
  "Inputs": [
  {
    "Name": "618",
    "Location": "Device",
    "Dimensions": [4,128,64,176],
    "Format/Datatype": "Thirty-two wide channel vectorized row major Int8 format"
  }],
  "Outputs": [
  {
    "Name": "631",
    "Location": "Device",
    "Dimensions": [4,128,32,88],
    "Format/Datatype": "Thirty-two wide channel vectorized row major Int8 format"
  }],
  "ParameterType": "Convolution",
  "Kernel": [3,3],
  "PaddingMode": "kEXPLICIT_ROUND_DOWN",
  "PrePadding": [1,1],
  "PostPadding": [1,1],
  "Stride": [2,2],
  "Dilation": [1,1],
  "OutMaps": 128,
  "Groups": 1,
  "Weights": {"Type": "Int8", "Count": 147456},
  "Bias": {"Type": "Float", "Count": 128},
  "HasSparseWeights": 0,
  "HasDynamicFilter": 0,
  "HasDynamicBias": 0,
  "HasResidual": 0,
  "ConvXAsActInputIdx": -1,
  "BiasAsActInputIdx": -1,
  "ResAsActInputIdx": -1,
  "Activation": "RELU",
  "HasBias": 1,
  "HasReLU": 1,
  "TacticName": "sm80_xmma_fprop_implicit_gemm_interleaved_i8i8_i8i32_f32_nchw_vect_c_32kcrs_vect_c_32_nchw_vect_c_32_tilesize192x128x64_stage3_warpsize4x2x1_g1_tensor16x8x32_t1r3s3",
  "TacticValue": "0xd9f3bbc3e16b16ac",
  "StreamId": 0,
  "Metadata": "[ONNX Layer: Conv_163][ONNX Layer: Relu_164]"
},{
  "Name": "model.encoders.camera.backbone.layer2.0.conv3.weight + QuantizeLinear_172 + Conv_174 + Add_191 + Relu_192",
  "LayerType": "CaskConvolution",
  "Inputs": [
  {
    "Name": "631",
    "Location": "Device",
    "Dimensions": [4,128,32,88],
    "Format/Datatype": "Thirty-two wide channel vectorized row major Int8 format"
  },
  {
    "Name": "655",
    "Location": "Device",
    "Dimensions": [4,512,32,88],
    "Format/Datatype": "Thirty-two wide channel vectorized row major Int8 format"
  }],
  "Outputs": [
  {
    "Name": "663",
    "Location": "Device",
    "Dimensions": [4,512,32,88],
    "Format/Datatype": "Thirty-two wide channel vectorized row major Int8 format"
  }],
  "ParameterType": "Convolution",
  "Kernel": [1,1],
  "PaddingMode": "kEXPLICIT_ROUND_DOWN",
  "PrePadding": [0,0],
  "PostPadding": [0,0],
  "Stride": [1,1],
  "Dilation": [1,1],
  "OutMaps": 512,
  "Groups": 1,
  "Weights": {"Type": "Int8", "Count": 65536},
  "Bias": {"Type": "Float", "Count": 512},
  "HasSparseWeights": 0,
  "HasDynamicFilter": 0,
  "HasDynamicBias": 0,
  "HasResidual": 1,
  "ConvXAsActInputIdx": -1,
  "BiasAsActInputIdx": -1,
  "ResAsActInputIdx": -1,
  "Activation": "RELU",
  "HasBias": 1,
  "HasReLU": 1,
  "TacticName": "sm80_xmma_fprop_implicit_gemm_interleaved_i8i8_i8i32_f32_nchw_vect_c_32kcrs_vect_c_32_nchw_vect_c_32_tilesize96x128x64_stage3_warpsize2x2x1_g1_tensor16x8x32_simple_t1r1s1",
  "TacticValue": "0x764ba04bb839d539",
  "StreamId": 0,
  "Metadata": "[ONNX Layer: Conv_174][ONNX Layer: Add_191][ONNX Layer: Relu_192]"
},{
  "Name": "model.encoders.camera.backbone.layer2.1.conv1.weight + QuantizeLinear_200 + Conv_202 + Relu_203",
  "LayerType": "CaskConvolution",
  "Inputs": [
  {
    "Name": "663",
    "Location": "Device",
    "Dimensions": [4,512,32,88],
    "Format/Datatype": "Thirty-two wide channel vectorized row major Int8 format"
  }],
  "Outputs": [
  {
    "Name": "676",
    "Location": "Device",
    "Dimensions": [4,128,32,88],
    "Format/Datatype": "Thirty-two wide channel vectorized row major Int8 format"
  }],
  "ParameterType": "Convolution",
  "Kernel": [1,1],
  "PaddingMode": "kEXPLICIT_ROUND_DOWN",
  "PrePadding": [0,0],
  "PostPadding": [0,0],
  "Stride": [1,1],
  "Dilation": [1,1],
  "OutMaps": 128,
  "Groups": 1,
  "Weights": {"Type": "Int8", "Count": 65536},
  "Bias": {"Type": "Float", "Count": 128},
  "HasSparseWeights": 0,
  "HasDynamicFilter": 0,
  "HasDynamicBias": 0,
  "HasResidual": 0,
  "ConvXAsActInputIdx": -1,
  "BiasAsActInputIdx": -1,
  "ResAsActInputIdx": -1,
  "Activation": "RELU",
  "HasBias": 1,
  "HasReLU": 1,
  "TacticName": "sm80_xmma_fprop_implicit_gemm_interleaved_i8i8_i8i32_f32_nchw_vect_c_32kcrs_vect_c_32_nchw_vect_c_32_tilesize192x64x64_stage3_warpsize4x1x1_g1_tensor16x8x32_simple_t1r1s1",
  "TacticValue": "0xa086b8faeb42b254",
  "StreamId": 0,
  "Metadata": "[ONNX Layer: Conv_202][ONNX Layer: Relu_203]"
},{
  "Name": "model.encoders.camera.backbone.layer2.1.conv2.weight + QuantizeLinear_211 + Conv_213 + Relu_214",
  "LayerType": "CaskConvolution",
  "Inputs": [
  {
    "Name": "676",
    "Location": "Device",
    "Dimensions": [4,128,32,88],
    "Format/Datatype": "Thirty-two wide channel vectorized row major Int8 format"
  }],
  "Outputs": [
  {
    "Name": "689",
    "Location": "Device",
    "Dimensions": [4,128,32,88],
    "Format/Datatype": "Thirty-two wide channel vectorized row major Int8 format"
  }],
  "ParameterType": "Convolution",
  "Kernel": [3,3],
  "PaddingMode": "kEXPLICIT_ROUND_DOWN",
  "PrePadding": [1,1],
  "PostPadding": [1,1],
  "Stride": [1,1],
  "Dilation": [1,1],
  "OutMaps": 128,
  "Groups": 1,
  "Weights": {"Type": "Int8", "Count": 147456},
  "Bias": {"Type": "Float", "Count": 128},
  "HasSparseWeights": 0,
  "HasDynamicFilter": 0,
  "HasDynamicBias": 0,
  "HasResidual": 0,
  "ConvXAsActInputIdx": -1,
  "BiasAsActInputIdx": -1,
  "ResAsActInputIdx": -1,
  "Activation": "RELU",
  "HasBias": 1,
  "HasReLU": 1,
  "TacticName": "sm80_xmma_fprop_implicit_gemm_interleaved_i8i8_i8i32_f32_nchw_vect_c_32kcrs_vect_c_32_nchw_vect_c_32_tilesize96x64x64_stage3_warpsize2x2x1_g1_tensor16x8x32_t1r3s3",
  "TacticValue": "0x70ccdad7e8ced9ab",
  "StreamId": 0,
  "Metadata": "[ONNX Layer: Conv_213][ONNX Layer: Relu_214]"
},{
  "Name": "model.encoders.camera.backbone.layer2.1.conv3.weight + QuantizeLinear_222 + Conv_224 + Add_231 + Relu_232",
  "LayerType": "CaskConvolution",
  "Inputs": [
  {
    "Name": "689",
    "Location": "Device",
    "Dimensions": [4,128,32,88],
    "Format/Datatype": "Thirty-two wide channel vectorized row major Int8 format"
  },
  {
    "Name": "663",
    "Location": "Device",
    "Dimensions": [4,512,32,88],
    "Format/Datatype": "Thirty-two wide channel vectorized row major Int8 format"
  }],
  "Outputs": [
  {
    "Name": "709",
    "Location": "Device",
    "Dimensions": [4,512,32,88],
    "Format/Datatype": "Thirty-two wide channel vectorized row major Int8 format"
  }],
  "ParameterType": "Convolution",
  "Kernel": [1,1],
  "PaddingMode": "kEXPLICIT_ROUND_DOWN",
  "PrePadding": [0,0],
  "PostPadding": [0,0],
  "Stride": [1,1],
  "Dilation": [1,1],
  "OutMaps": 512,
  "Groups": 1,
  "Weights": {"Type": "Int8", "Count": 65536},
  "Bias": {"Type": "Float", "Count": 512},
  "HasSparseWeights": 0,
  "HasDynamicFilter": 0,
  "HasDynamicBias": 0,
  "HasResidual": 1,
  "ConvXAsActInputIdx": -1,
  "BiasAsActInputIdx": -1,
  "ResAsActInputIdx": -1,
  "Activation": "RELU",
  "HasBias": 1,
  "HasReLU": 1,
  "TacticName": "sm80_xmma_fprop_implicit_gemm_interleaved_i8i8_i8i32_f32_nchw_vect_c_32kcrs_vect_c_32_nchw_vect_c_32_tilesize96x128x64_stage3_warpsize2x2x1_g1_tensor16x8x32_simple_t1r1s1",
  "TacticValue": "0x764ba04bb839d539",
  "StreamId": 0,
  "Metadata": "[ONNX Layer: Conv_224][ONNX Layer: Add_231][ONNX Layer: Relu_232]"
},{
  "Name": "model.encoders.camera.backbone.layer2.2.conv1.weight + QuantizeLinear_240 + Conv_242 + Relu_243",
  "LayerType": "CaskConvolution",
  "Inputs": [
  {
    "Name": "709",
    "Location": "Device",
    "Dimensions": [4,512,32,88],
    "Format/Datatype": "Thirty-two wide channel vectorized row major Int8 format"
  }],
  "Outputs": [
  {
    "Name": "722",
    "Location": "Device",
    "Dimensions": [4,128,32,88],
    "Format/Datatype": "Thirty-two wide channel vectorized row major Int8 format"
  }],
  "ParameterType": "Convolution",
  "Kernel": [1,1],
  "PaddingMode": "kEXPLICIT_ROUND_DOWN",
  "PrePadding": [0,0],
  "PostPadding": [0,0],
  "Stride": [1,1],
  "Dilation": [1,1],
  "OutMaps": 128,
  "Groups": 1,
  "Weights": {"Type": "Int8", "Count": 65536},
  "Bias": {"Type": "Float", "Count": 128},
  "HasSparseWeights": 0,
  "HasDynamicFilter": 0,
  "HasDynamicBias": 0,
  "HasResidual": 0,
  "ConvXAsActInputIdx": -1,
  "BiasAsActInputIdx": -1,
  "ResAsActInputIdx": -1,
  "Activation": "RELU",
  "HasBias": 1,
  "HasReLU": 1,
  "TacticName": "sm80_xmma_fprop_implicit_gemm_interleaved_i8i8_i8i32_f32_nchw_vect_c_32kcrs_vect_c_32_nchw_vect_c_32_tilesize192x64x64_stage3_warpsize4x1x1_g1_tensor16x8x32_simple_t1r1s1",
  "TacticValue": "0xa086b8faeb42b254",
  "StreamId": 0,
  "Metadata": "[ONNX Layer: Conv_242][ONNX Layer: Relu_243]"
},{
  "Name": "model.encoders.camera.backbone.layer2.2.conv2.weight + QuantizeLinear_251 + Conv_253 + Relu_254",
  "LayerType": "CaskConvolution",
  "Inputs": [
  {
    "Name": "722",
    "Location": "Device",
    "Dimensions": [4,128,32,88],
    "Format/Datatype": "Thirty-two wide channel vectorized row major Int8 format"
  }],
  "Outputs": [
  {
    "Name": "735",
    "Location": "Device",
    "Dimensions": [4,128,32,88],
    "Format/Datatype": "Thirty-two wide channel vectorized row major Int8 format"
  }],
  "ParameterType": "Convolution",
  "Kernel": [3,3],
  "PaddingMode": "kEXPLICIT_ROUND_DOWN",
  "PrePadding": [1,1],
  "PostPadding": [1,1],
  "Stride": [1,1],
  "Dilation": [1,1],
  "OutMaps": 128,
  "Groups": 1,
  "Weights": {"Type": "Int8", "Count": 147456},
  "Bias": {"Type": "Float", "Count": 128},
  "HasSparseWeights": 0,
  "HasDynamicFilter": 0,
  "HasDynamicBias": 0,
  "HasResidual": 0,
  "ConvXAsActInputIdx": -1,
  "BiasAsActInputIdx": -1,
  "ResAsActInputIdx": -1,
  "Activation": "RELU",
  "HasBias": 1,
  "HasReLU": 1,
  "TacticName": "sm80_xmma_fprop_implicit_gemm_interleaved_i8i8_i8i32_f32_nchw_vect_c_32kcrs_vect_c_32_nchw_vect_c_32_tilesize96x64x64_stage3_warpsize2x2x1_g1_tensor16x8x32_t1r3s3",
  "TacticValue": "0x70ccdad7e8ced9ab",
  "StreamId": 0,
  "Metadata": "[ONNX Layer: Conv_253][ONNX Layer: Relu_254]"
},{
  "Name": "model.encoders.camera.backbone.layer2.2.conv3.weight + QuantizeLinear_262 + Conv_264 + Add_271 + Relu_272",
  "LayerType": "CaskConvolution",
  "Inputs": [
  {
    "Name": "735",
    "Location": "Device",
    "Dimensions": [4,128,32,88],
    "Format/Datatype": "Thirty-two wide channel vectorized row major Int8 format"
  },
  {
    "Name": "709",
    "Location": "Device",
    "Dimensions": [4,512,32,88],
    "Format/Datatype": "Thirty-two wide channel vectorized row major Int8 format"
  }],
  "Outputs": [
  {
    "Name": "755",
    "Location": "Device",
    "Dimensions": [4,512,32,88],
    "Format/Datatype": "Thirty-two wide channel vectorized row major Int8 format"
  }],
  "ParameterType": "Convolution",
  "Kernel": [1,1],
  "PaddingMode": "kEXPLICIT_ROUND_DOWN",
  "PrePadding": [0,0],
  "PostPadding": [0,0],
  "Stride": [1,1],
  "Dilation": [1,1],
  "OutMaps": 512,
  "Groups": 1,
  "Weights": {"Type": "Int8", "Count": 65536},
  "Bias": {"Type": "Float", "Count": 512},
  "HasSparseWeights": 0,
  "HasDynamicFilter": 0,
  "HasDynamicBias": 0,
  "HasResidual": 1,
  "ConvXAsActInputIdx": -1,
  "BiasAsActInputIdx": -1,
  "ResAsActInputIdx": -1,
  "Activation": "RELU",
  "HasBias": 1,
  "HasReLU": 1,
  "TacticName": "sm80_xmma_fprop_implicit_gemm_interleaved_i8i8_i8i32_f32_nchw_vect_c_32kcrs_vect_c_32_nchw_vect_c_32_tilesize96x128x64_stage3_warpsize2x2x1_g1_tensor16x8x32_simple_t1r1s1",
  "TacticValue": "0x764ba04bb839d539",
  "StreamId": 0,
  "Metadata": "[ONNX Layer: Conv_264][ONNX Layer: Add_271][ONNX Layer: Relu_272]"
},{
  "Name": "model.encoders.camera.backbone.layer2.3.conv1.weight + QuantizeLinear_280 + Conv_282 + Relu_283",
  "LayerType": "CaskConvolution",
  "Inputs": [
  {
    "Name": "755",
    "Location": "Device",
    "Dimensions": [4,512,32,88],
    "Format/Datatype": "Thirty-two wide channel vectorized row major Int8 format"
  }],
  "Outputs": [
  {
    "Name": "768",
    "Location": "Device",
    "Dimensions": [4,128,32,88],
    "Format/Datatype": "Thirty-two wide channel vectorized row major Int8 format"
  }],
  "ParameterType": "Convolution",
  "Kernel": [1,1],
  "PaddingMode": "kEXPLICIT_ROUND_DOWN",
  "PrePadding": [0,0],
  "PostPadding": [0,0],
  "Stride": [1,1],
  "Dilation": [1,1],
  "OutMaps": 128,
  "Groups": 1,
  "Weights": {"Type": "Int8", "Count": 65536},
  "Bias": {"Type": "Float", "Count": 128},
  "HasSparseWeights": 0,
  "HasDynamicFilter": 0,
  "HasDynamicBias": 0,
  "HasResidual": 0,
  "ConvXAsActInputIdx": -1,
  "BiasAsActInputIdx": -1,
  "ResAsActInputIdx": -1,
  "Activation": "RELU",
  "HasBias": 1,
  "HasReLU": 1,
  "TacticName": "sm80_xmma_fprop_implicit_gemm_interleaved_i8i8_i8i32_f32_nchw_vect_c_32kcrs_vect_c_32_nchw_vect_c_32_tilesize192x64x64_stage3_warpsize4x1x1_g1_tensor16x8x32_simple_t1r1s1",
  "TacticValue": "0xa086b8faeb42b254",
  "StreamId": 0,
  "Metadata": "[ONNX Layer: Conv_282][ONNX Layer: Relu_283]"
},{
  "Name": "model.encoders.camera.backbone.layer2.3.conv2.weight + QuantizeLinear_291 + Conv_293 + Relu_294",
  "LayerType": "CaskConvolution",
  "Inputs": [
  {
    "Name": "768",
    "Location": "Device",
    "Dimensions": [4,128,32,88],
    "Format/Datatype": "Thirty-two wide channel vectorized row major Int8 format"
  }],
  "Outputs": [
  {
    "Name": "781",
    "Location": "Device",
    "Dimensions": [4,128,32,88],
    "Format/Datatype": "Thirty-two wide channel vectorized row major Int8 format"
  }],
  "ParameterType": "Convolution",
  "Kernel": [3,3],
  "PaddingMode": "kEXPLICIT_ROUND_DOWN",
  "PrePadding": [1,1],
  "PostPadding": [1,1],
  "Stride": [1,1],
  "Dilation": [1,1],
  "OutMaps": 128,
  "Groups": 1,
  "Weights": {"Type": "Int8", "Count": 147456},
  "Bias": {"Type": "Float", "Count": 128},
  "HasSparseWeights": 0,
  "HasDynamicFilter": 0,
  "HasDynamicBias": 0,
  "HasResidual": 0,
  "ConvXAsActInputIdx": -1,
  "BiasAsActInputIdx": -1,
  "ResAsActInputIdx": -1,
  "Activation": "RELU",
  "HasBias": 1,
  "HasReLU": 1,
  "TacticName": "sm80_xmma_fprop_implicit_gemm_interleaved_i8i8_i8i32_f32_nchw_vect_c_32kcrs_vect_c_32_nchw_vect_c_32_tilesize96x64x64_stage3_warpsize2x2x1_g1_tensor16x8x32_t1r3s3",
  "TacticValue": "0x70ccdad7e8ced9ab",
  "StreamId": 0,
  "Metadata": "[ONNX Layer: Conv_293][ONNX Layer: Relu_294]"
},{
  "Name": "model.encoders.camera.backbone.layer2.3.conv3.weight + QuantizeLinear_302 + Conv_304 + Add_311 + Relu_312",
  "LayerType": "CaskConvolution",
  "Inputs": [
  {
    "Name": "781",
    "Location": "Device",
    "Dimensions": [4,128,32,88],
    "Format/Datatype": "Thirty-two wide channel vectorized row major Int8 format"
  },
  {
    "Name": "755",
    "Location": "Device",
    "Dimensions": [4,512,32,88],
    "Format/Datatype": "Thirty-two wide channel vectorized row major Int8 format"
  }],
  "Outputs": [
  {
    "Name": "Concat_754_1303_clone_0",
    "Location": "Device",
    "Dimensions": [4,512,32,88],
    "Format/Datatype": "Thirty-two wide channel vectorized row major Int8 format"
  }],
  "ParameterType": "Convolution",
  "Kernel": [1,1],
  "PaddingMode": "kEXPLICIT_ROUND_DOWN",
  "PrePadding": [0,0],
  "PostPadding": [0,0],
  "Stride": [1,1],
  "Dilation": [1,1],
  "OutMaps": 512,
  "Groups": 1,
  "Weights": {"Type": "Int8", "Count": 65536},
  "Bias": {"Type": "Float", "Count": 512},
  "HasSparseWeights": 0,
  "HasDynamicFilter": 0,
  "HasDynamicBias": 0,
  "HasResidual": 1,
  "ConvXAsActInputIdx": -1,
  "BiasAsActInputIdx": -1,
  "ResAsActInputIdx": -1,
  "Activation": "RELU",
  "HasBias": 1,
  "HasReLU": 1,
  "TacticName": "sm80_xmma_fprop_implicit_gemm_interleaved_i8i8_i8i32_f32_nchw_vect_c_32kcrs_vect_c_32_nchw_vect_c_32_tilesize96x128x64_stage3_warpsize2x2x1_g1_tensor16x8x32_simple_t1r1s1",
  "TacticValue": "0x764ba04bb839d539",
  "StreamId": 0,
  "Metadata": "[ONNX Layer: Conv_304][ONNX Layer: Add_311][ONNX Layer: Relu_312]"
},{
  "Name": "model.encoders.camera.backbone.layer3.0.conv1.weight + QuantizeLinear_320 + Conv_322 + Relu_323",
  "LayerType": "CaskConvolution",
  "Inputs": [
  {
    "Name": "Concat_754_1303_clone_0",
    "Location": "Device",
    "Dimensions": [4,512,32,88],
    "Format/Datatype": "Thirty-two wide channel vectorized row major Int8 format"
  }],
  "Outputs": [
  {
    "Name": "814",
    "Location": "Device",
    "Dimensions": [4,256,32,88],
    "Format/Datatype": "Thirty-two wide channel vectorized row major Int8 format"
  }],
  "ParameterType": "Convolution",
  "Kernel": [1,1],
  "PaddingMode": "kEXPLICIT_ROUND_DOWN",
  "PrePadding": [0,0],
  "PostPadding": [0,0],
  "Stride": [1,1],
  "Dilation": [1,1],
  "OutMaps": 256,
  "Groups": 1,
  "Weights": {"Type": "Int8", "Count": 131072},
  "Bias": {"Type": "Float", "Count": 256},
  "HasSparseWeights": 0,
  "HasDynamicFilter": 0,
  "HasDynamicBias": 0,
  "HasResidual": 0,
  "ConvXAsActInputIdx": -1,
  "BiasAsActInputIdx": -1,
  "ResAsActInputIdx": -1,
  "Activation": "RELU",
  "HasBias": 1,
  "HasReLU": 1,
  "TacticName": "sm80_xmma_conv_fprop_smallk_i8i8_i32_f32_nchw_vect_c_32kcrs_vect_c_32_nchw_vect_c_32_warptilesize16x32_stage4_warpsize2x4x1_r1s1_u1v1_hw0_c512_scalebias_relu",
  "TacticValue": "0x1a8c6f408af8839b",
  "StreamId": 0,
  "Metadata": "[ONNX Layer: Conv_322][ONNX Layer: Relu_323]"
},{
  "Name": "model.encoders.camera.backbone.layer3.0.downsample.0.weight + QuantizeLinear_352 + Conv_354",
  "LayerType": "CaskConvolution",
  "Inputs": [
  {
    "Name": "Concat_754_1303_clone_0",
    "Location": "Device",
    "Dimensions": [4,512,32,88],
    "Format/Datatype": "Thirty-two wide channel vectorized row major Int8 format"
  }],
  "Outputs": [
  {
    "Name": "851",
    "Location": "Device",
    "Dimensions": [4,1024,16,44],
    "Format/Datatype": "Thirty-two wide channel vectorized row major Int8 format"
  }],
  "ParameterType": "Convolution",
  "Kernel": [1,1],
  "PaddingMode": "kEXPLICIT_ROUND_DOWN",
  "PrePadding": [0,0],
  "PostPadding": [0,0],
  "Stride": [2,2],
  "Dilation": [1,1],
  "OutMaps": 1024,
  "Groups": 1,
  "Weights": {"Type": "Int8", "Count": 524288},
  "Bias": {"Type": "Float", "Count": 1024},
  "HasSparseWeights": 0,
  "HasDynamicFilter": 0,
  "HasDynamicBias": 0,
  "HasResidual": 0,
  "ConvXAsActInputIdx": -1,
  "BiasAsActInputIdx": -1,
  "ResAsActInputIdx": -1,
  "Activation": "NONE",
  "HasBias": 1,
  "HasReLU": 0,
  "TacticName": "sm80_xmma_fprop_implicit_gemm_interleaved_i8i8_i8i32_f32_nchw_vect_c_32kcrs_vect_c_32_nchw_vect_c_32_tilesize96x128x64_stage3_warpsize2x2x1_g1_tensor16x8x32",
  "TacticValue": "0x87620679fb5f37df",
  "StreamId": 0,
  "Metadata": "[ONNX Layer: Conv_354]"
},{
  "Name": "model.encoders.camera.backbone.layer3.0.conv2.weight + QuantizeLinear_331 + Conv_333 + Relu_334",
  "LayerType": "CaskConvolution",
  "Inputs": [
  {
    "Name": "814",
    "Location": "Device",
    "Dimensions": [4,256,32,88],
    "Format/Datatype": "Thirty-two wide channel vectorized row major Int8 format"
  }],
  "Outputs": [
  {
    "Name": "827",
    "Location": "Device",
    "Dimensions": [4,256,16,44],
    "Format/Datatype": "Thirty-two wide channel vectorized row major Int8 format"
  }],
  "ParameterType": "Convolution",
  "Kernel": [3,3],
  "PaddingMode": "kEXPLICIT_ROUND_DOWN",
  "PrePadding": [1,1],
  "PostPadding": [1,1],
  "Stride": [2,2],
  "Dilation": [1,1],
  "OutMaps": 256,
  "Groups": 1,
  "Weights": {"Type": "Int8", "Count": 589824},
  "Bias": {"Type": "Float", "Count": 256},
  "HasSparseWeights": 0,
  "HasDynamicFilter": 0,
  "HasDynamicBias": 0,
  "HasResidual": 0,
  "ConvXAsActInputIdx": -1,
  "BiasAsActInputIdx": -1,
  "ResAsActInputIdx": -1,
  "Activation": "RELU",
  "HasBias": 1,
  "HasReLU": 1,
  "TacticName": "sm80_xmma_fprop_implicit_gemm_interleaved_i8i8_i8i32_f32_nchw_vect_c_32kcrs_vect_c_32_nchw_vect_c_32_tilesize96x128x64_stage3_warpsize2x2x1_g1_tensor16x8x32_t1r3s3",
  "TacticValue": "0xf33711e7c9ed4673",
  "StreamId": 0,
  "Metadata": "[ONNX Layer: Conv_333][ONNX Layer: Relu_334]"
},{
  "Name": "model.encoders.camera.backbone.layer3.0.conv3.weight + QuantizeLinear_342 + Conv_344 + Add_361 + Relu_362",
  "LayerType": "CaskConvolution",
  "Inputs": [
  {
    "Name": "827",
    "Location": "Device",
    "Dimensions": [4,256,16,44],
    "Format/Datatype": "Thirty-two wide channel vectorized row major Int8 format"
  },
  {
    "Name": "851",
    "Location": "Device",
    "Dimensions": [4,1024,16,44],
    "Format/Datatype": "Thirty-two wide channel vectorized row major Int8 format"
  }],
  "Outputs": [
  {
    "Name": "859",
    "Location": "Device",
    "Dimensions": [4,1024,16,44],
    "Format/Datatype": "Thirty-two wide channel vectorized row major Int8 format"
  }],
  "ParameterType": "Convolution",
  "Kernel": [1,1],
  "PaddingMode": "kEXPLICIT_ROUND_DOWN",
  "PrePadding": [0,0],
  "PostPadding": [0,0],
  "Stride": [1,1],
  "Dilation": [1,1],
  "OutMaps": 1024,
  "Groups": 1,
  "Weights": {"Type": "Int8", "Count": 262144},
  "Bias": {"Type": "Float", "Count": 1024},
  "HasSparseWeights": 0,
  "HasDynamicFilter": 0,
  "HasDynamicBias": 0,
  "HasResidual": 1,
  "ConvXAsActInputIdx": -1,
  "BiasAsActInputIdx": -1,
  "ResAsActInputIdx": -1,
  "Activation": "RELU",
  "HasBias": 1,
  "HasReLU": 1,
  "TacticName": "sm80_xmma_conv_fprop_smallk_i8i8_i32_f32_nchw_vect_c_32kcrs_vect_c_32_nchw_vect_c_32_warptilesize32x32_stage4_warpsize2x4x1_r1s1_u1v1_hw0_c256_scalebias_beta_relu",
  "TacticValue": "0x7da1544a119637e7",
  "StreamId": 0,
  "Metadata": "[ONNX Layer: Conv_344][ONNX Layer: Add_361][ONNX Layer: Relu_362]"
},{
  "Name": "model.encoders.camera.backbone.layer3.1.conv1.weight + QuantizeLinear_370 + Conv_372 + Relu_373",
  "LayerType": "CaskConvolution",
  "Inputs": [
  {
    "Name": "859",
    "Location": "Device",
    "Dimensions": [4,1024,16,44],
    "Format/Datatype": "Thirty-two wide channel vectorized row major Int8 format"
  }],
  "Outputs": [
  {
    "Name": "872",
    "Location": "Device",
    "Dimensions": [4,256,16,44],
    "Format/Datatype": "Thirty-two wide channel vectorized row major Int8 format"
  }],
  "ParameterType": "Convolution",
  "Kernel": [1,1],
  "PaddingMode": "kEXPLICIT_ROUND_DOWN",
  "PrePadding": [0,0],
  "PostPadding": [0,0],
  "Stride": [1,1],
  "Dilation": [1,1],
  "OutMaps": 256,
  "Groups": 1,
  "Weights": {"Type": "Int8", "Count": 262144},
  "Bias": {"Type": "Float", "Count": 256},
  "HasSparseWeights": 0,
  "HasDynamicFilter": 0,
  "HasDynamicBias": 0,
  "HasResidual": 0,
  "ConvXAsActInputIdx": -1,
  "BiasAsActInputIdx": -1,
  "ResAsActInputIdx": -1,
  "Activation": "RELU",
  "HasBias": 1,
  "HasReLU": 1,
  "TacticName": "sm80_xmma_fprop_implicit_gemm_interleaved_i8i8_i8i32_f32_nchw_vect_c_32kcrs_vect_c_32_nchw_vect_c_32_tilesize128x96x64_stage3_warpsize4x1x1_g1_tensor16x8x32_simple_t1r1s1",
  "TacticValue": "0x429236a031bfe3e7",
  "StreamId": 0,
  "Metadata": "[ONNX Layer: Conv_372][ONNX Layer: Relu_373]"
},{
  "Name": "model.encoders.camera.backbone.layer3.1.conv2.weight + QuantizeLinear_381 + Conv_383 + Relu_384",
  "LayerType": "CaskConvolution",
  "Inputs": [
  {
    "Name": "872",
    "Location": "Device",
    "Dimensions": [4,256,16,44],
    "Format/Datatype": "Thirty-two wide channel vectorized row major Int8 format"
  }],
  "Outputs": [
  {
    "Name": "885",
    "Location": "Device",
    "Dimensions": [4,256,16,44],
    "Format/Datatype": "Thirty-two wide channel vectorized row major Int8 format"
  }],
  "ParameterType": "Convolution",
  "Kernel": [3,3],
  "PaddingMode": "kEXPLICIT_ROUND_DOWN",
  "PrePadding": [1,1],
  "PostPadding": [1,1],
  "Stride": [1,1],
  "Dilation": [1,1],
  "OutMaps": 256,
  "Groups": 1,
  "Weights": {"Type": "Int8", "Count": 589824},
  "Bias": {"Type": "Float", "Count": 256},
  "HasSparseWeights": 0,
  "HasDynamicFilter": 0,
  "HasDynamicBias": 0,
  "HasResidual": 0,
  "ConvXAsActInputIdx": -1,
  "BiasAsActInputIdx": -1,
  "ResAsActInputIdx": -1,
  "Activation": "RELU",
  "HasBias": 1,
  "HasReLU": 1,
  "TacticName": "sm80_xmma_fprop_implicit_gemm_interleaved_i8i8_i8i32_f32_nchw_vect_c_32kcrs_vect_c_32_nchw_vect_c_32_tilesize192x64x64_stage3_warpsize4x1x1_g1_tensor16x8x32_t1r3s3",
  "TacticValue": "0xef01fb6e433afa50",
  "StreamId": 0,
  "Metadata": "[ONNX Layer: Conv_383][ONNX Layer: Relu_384]"
},{
  "Name": "model.encoders.camera.backbone.layer3.1.conv3.weight + QuantizeLinear_392 + Conv_394 + Add_401 + Relu_402",
  "LayerType": "CaskConvolution",
  "Inputs": [
  {
    "Name": "885",
    "Location": "Device",
    "Dimensions": [4,256,16,44],
    "Format/Datatype": "Thirty-two wide channel vectorized row major Int8 format"
  },
  {
    "Name": "859",
    "Location": "Device",
    "Dimensions": [4,1024,16,44],
    "Format/Datatype": "Thirty-two wide channel vectorized row major Int8 format"
  }],
  "Outputs": [
  {
    "Name": "905",
    "Location": "Device",
    "Dimensions": [4,1024,16,44],
    "Format/Datatype": "Thirty-two wide channel vectorized row major Int8 format"
  }],
  "ParameterType": "Convolution",
  "Kernel": [1,1],
  "PaddingMode": "kEXPLICIT_ROUND_DOWN",
  "PrePadding": [0,0],
  "PostPadding": [0,0],
  "Stride": [1,1],
  "Dilation": [1,1],
  "OutMaps": 1024,
  "Groups": 1,
  "Weights": {"Type": "Int8", "Count": 262144},
  "Bias": {"Type": "Float", "Count": 1024},
  "HasSparseWeights": 0,
  "HasDynamicFilter": 0,
  "HasDynamicBias": 0,
  "HasResidual": 1,
  "ConvXAsActInputIdx": -1,
  "BiasAsActInputIdx": -1,
  "ResAsActInputIdx": -1,
  "Activation": "RELU",
  "HasBias": 1,
  "HasReLU": 1,
  "TacticName": "sm80_xmma_conv_fprop_smallk_i8i8_i32_f32_nchw_vect_c_32kcrs_vect_c_32_nchw_vect_c_32_warptilesize32x32_stage4_warpsize2x4x1_r1s1_u1v1_hw0_c256_scalebias_beta_relu",
  "TacticValue": "0x7da1544a119637e7",
  "StreamId": 0,
  "Metadata": "[ONNX Layer: Conv_394][ONNX Layer: Add_401][ONNX Layer: Relu_402]"
},{
  "Name": "model.encoders.camera.backbone.layer3.2.conv1.weight + QuantizeLinear_410 + Conv_412 + Relu_413",
  "LayerType": "CaskConvolution",
  "Inputs": [
  {
    "Name": "905",
    "Location": "Device",
    "Dimensions": [4,1024,16,44],
    "Format/Datatype": "Thirty-two wide channel vectorized row major Int8 format"
  }],
  "Outputs": [
  {
    "Name": "918",
    "Location": "Device",
    "Dimensions": [4,256,16,44],
    "Format/Datatype": "Thirty-two wide channel vectorized row major Int8 format"
  }],
  "ParameterType": "Convolution",
  "Kernel": [1,1],
  "PaddingMode": "kEXPLICIT_ROUND_DOWN",
  "PrePadding": [0,0],
  "PostPadding": [0,0],
  "Stride": [1,1],
  "Dilation": [1,1],
  "OutMaps": 256,
  "Groups": 1,
  "Weights": {"Type": "Int8", "Count": 262144},
  "Bias": {"Type": "Float", "Count": 256},
  "HasSparseWeights": 0,
  "HasDynamicFilter": 0,
  "HasDynamicBias": 0,
  "HasResidual": 0,
  "ConvXAsActInputIdx": -1,
  "BiasAsActInputIdx": -1,
  "ResAsActInputIdx": -1,
  "Activation": "RELU",
  "HasBias": 1,
  "HasReLU": 1,
  "TacticName": "sm80_xmma_fprop_implicit_gemm_interleaved_i8i8_i8i32_f32_nchw_vect_c_32kcrs_vect_c_32_nchw_vect_c_32_tilesize128x96x64_stage3_warpsize4x1x1_g1_tensor16x8x32_simple_t1r1s1",
  "TacticValue": "0x429236a031bfe3e7",
  "StreamId": 0,
  "Metadata": "[ONNX Layer: Conv_412][ONNX Layer: Relu_413]"
},{
  "Name": "model.encoders.camera.backbone.layer3.2.conv2.weight + QuantizeLinear_421 + Conv_423 + Relu_424",
  "LayerType": "CaskConvolution",
  "Inputs": [
  {
    "Name": "918",
    "Location": "Device",
    "Dimensions": [4,256,16,44],
    "Format/Datatype": "Thirty-two wide channel vectorized row major Int8 format"
  }],
  "Outputs": [
  {
    "Name": "931",
    "Location": "Device",
    "Dimensions": [4,256,16,44],
    "Format/Datatype": "Thirty-two wide channel vectorized row major Int8 format"
  }],
  "ParameterType": "Convolution",
  "Kernel": [3,3],
  "PaddingMode": "kEXPLICIT_ROUND_DOWN",
  "PrePadding": [1,1],
  "PostPadding": [1,1],
  "Stride": [1,1],
  "Dilation": [1,1],
  "OutMaps": 256,
  "Groups": 1,
  "Weights": {"Type": "Int8", "Count": 589824},
  "Bias": {"Type": "Float", "Count": 256},
  "HasSparseWeights": 0,
  "HasDynamicFilter": 0,
  "HasDynamicBias": 0,
  "HasResidual": 0,
  "ConvXAsActInputIdx": -1,
  "BiasAsActInputIdx": -1,
  "ResAsActInputIdx": -1,
  "Activation": "RELU",
  "HasBias": 1,
  "HasReLU": 1,
  "TacticName": "sm80_xmma_fprop_implicit_gemm_interleaved_i8i8_i8i32_f32_nchw_vect_c_32kcrs_vect_c_32_nchw_vect_c_32_tilesize192x64x64_stage3_warpsize4x1x1_g1_tensor16x8x32_t1r3s3",
  "TacticValue": "0xef01fb6e433afa50",
  "StreamId": 0,
  "Metadata": "[ONNX Layer: Conv_423][ONNX Layer: Relu_424]"
},{
  "Name": "model.encoders.camera.backbone.layer3.2.conv3.weight + QuantizeLinear_432 + Conv_434 + Add_441 + Relu_442",
  "LayerType": "CaskConvolution",
  "Inputs": [
  {
    "Name": "931",
    "Location": "Device",
    "Dimensions": [4,256,16,44],
    "Format/Datatype": "Thirty-two wide channel vectorized row major Int8 format"
  },
  {
    "Name": "905",
    "Location": "Device",
    "Dimensions": [4,1024,16,44],
    "Format/Datatype": "Thirty-two wide channel vectorized row major Int8 format"
  }],
  "Outputs": [
  {
    "Name": "951",
    "Location": "Device",
    "Dimensions": [4,1024,16,44],
    "Format/Datatype": "Thirty-two wide channel vectorized row major Int8 format"
  }],
  "ParameterType": "Convolution",
  "Kernel": [1,1],
  "PaddingMode": "kEXPLICIT_ROUND_DOWN",
  "PrePadding": [0,0],
  "PostPadding": [0,0],
  "Stride": [1,1],
  "Dilation": [1,1],
  "OutMaps": 1024,
  "Groups": 1,
  "Weights": {"Type": "Int8", "Count": 262144},
  "Bias": {"Type": "Float", "Count": 1024},
  "HasSparseWeights": 0,
  "HasDynamicFilter": 0,
  "HasDynamicBias": 0,
  "HasResidual": 1,
  "ConvXAsActInputIdx": -1,
  "BiasAsActInputIdx": -1,
  "ResAsActInputIdx": -1,
  "Activation": "RELU",
  "HasBias": 1,
  "HasReLU": 1,
  "TacticName": "sm80_xmma_conv_fprop_smallk_i8i8_i32_f32_nchw_vect_c_32kcrs_vect_c_32_nchw_vect_c_32_warptilesize32x32_stage4_warpsize2x4x1_r1s1_u1v1_hw0_c256_scalebias_beta_relu",
  "TacticValue": "0x7da1544a119637e7",
  "StreamId": 0,
  "Metadata": "[ONNX Layer: Conv_434][ONNX Layer: Add_441][ONNX Layer: Relu_442]"
},{
  "Name": "model.encoders.camera.backbone.layer3.3.conv1.weight + QuantizeLinear_450 + Conv_452 + Relu_453",
  "LayerType": "CaskConvolution",
  "Inputs": [
  {
    "Name": "951",
    "Location": "Device",
    "Dimensions": [4,1024,16,44],
    "Format/Datatype": "Thirty-two wide channel vectorized row major Int8 format"
  }],
  "Outputs": [
  {
    "Name": "964",
    "Location": "Device",
    "Dimensions": [4,256,16,44],
    "Format/Datatype": "Thirty-two wide channel vectorized row major Int8 format"
  }],
  "ParameterType": "Convolution",
  "Kernel": [1,1],
  "PaddingMode": "kEXPLICIT_ROUND_DOWN",
  "PrePadding": [0,0],
  "PostPadding": [0,0],
  "Stride": [1,1],
  "Dilation": [1,1],
  "OutMaps": 256,
  "Groups": 1,
  "Weights": {"Type": "Int8", "Count": 262144},
  "Bias": {"Type": "Float", "Count": 256},
  "HasSparseWeights": 0,
  "HasDynamicFilter": 0,
  "HasDynamicBias": 0,
  "HasResidual": 0,
  "ConvXAsActInputIdx": -1,
  "BiasAsActInputIdx": -1,
  "ResAsActInputIdx": -1,
  "Activation": "RELU",
  "HasBias": 1,
  "HasReLU": 1,
  "TacticName": "sm80_xmma_fprop_implicit_gemm_interleaved_i8i8_i8i32_f32_nchw_vect_c_32kcrs_vect_c_32_nchw_vect_c_32_tilesize128x96x64_stage3_warpsize4x1x1_g1_tensor16x8x32_simple_t1r1s1",
  "TacticValue": "0x429236a031bfe3e7",
  "StreamId": 0,
  "Metadata": "[ONNX Layer: Conv_452][ONNX Layer: Relu_453]"
},{
  "Name": "model.encoders.camera.backbone.layer3.3.conv2.weight + QuantizeLinear_461 + Conv_463 + Relu_464",
  "LayerType": "CaskConvolution",
  "Inputs": [
  {
    "Name": "964",
    "Location": "Device",
    "Dimensions": [4,256,16,44],
    "Format/Datatype": "Thirty-two wide channel vectorized row major Int8 format"
  }],
  "Outputs": [
  {
    "Name": "977",
    "Location": "Device",
    "Dimensions": [4,256,16,44],
    "Format/Datatype": "Thirty-two wide channel vectorized row major Int8 format"
  }],
  "ParameterType": "Convolution",
  "Kernel": [3,3],
  "PaddingMode": "kEXPLICIT_ROUND_DOWN",
  "PrePadding": [1,1],
  "PostPadding": [1,1],
  "Stride": [1,1],
  "Dilation": [1,1],
  "OutMaps": 256,
  "Groups": 1,
  "Weights": {"Type": "Int8", "Count": 589824},
  "Bias": {"Type": "Float", "Count": 256},
  "HasSparseWeights": 0,
  "HasDynamicFilter": 0,
  "HasDynamicBias": 0,
  "HasResidual": 0,
  "ConvXAsActInputIdx": -1,
  "BiasAsActInputIdx": -1,
  "ResAsActInputIdx": -1,
  "Activation": "RELU",
  "HasBias": 1,
  "HasReLU": 1,
  "TacticName": "sm80_xmma_fprop_implicit_gemm_interleaved_i8i8_i8i32_f32_nchw_vect_c_32kcrs_vect_c_32_nchw_vect_c_32_tilesize192x64x64_stage3_warpsize4x1x1_g1_tensor16x8x32_t1r3s3",
  "TacticValue": "0xef01fb6e433afa50",
  "StreamId": 0,
  "Metadata": "[ONNX Layer: Conv_463][ONNX Layer: Relu_464]"
},{
  "Name": "model.encoders.camera.backbone.layer3.3.conv3.weight + QuantizeLinear_472 + Conv_474 + Add_481 + Relu_482",
  "LayerType": "CaskConvolution",
  "Inputs": [
  {
    "Name": "977",
    "Location": "Device",
    "Dimensions": [4,256,16,44],
    "Format/Datatype": "Thirty-two wide channel vectorized row major Int8 format"
  },
  {
    "Name": "951",
    "Location": "Device",
    "Dimensions": [4,1024,16,44],
    "Format/Datatype": "Thirty-two wide channel vectorized row major Int8 format"
  }],
  "Outputs": [
  {
    "Name": "997",
    "Location": "Device",
    "Dimensions": [4,1024,16,44],
    "Format/Datatype": "Thirty-two wide channel vectorized row major Int8 format"
  }],
  "ParameterType": "Convolution",
  "Kernel": [1,1],
  "PaddingMode": "kEXPLICIT_ROUND_DOWN",
  "PrePadding": [0,0],
  "PostPadding": [0,0],
  "Stride": [1,1],
  "Dilation": [1,1],
  "OutMaps": 1024,
  "Groups": 1,
  "Weights": {"Type": "Int8", "Count": 262144},
  "Bias": {"Type": "Float", "Count": 1024},
  "HasSparseWeights": 0,
  "HasDynamicFilter": 0,
  "HasDynamicBias": 0,
  "HasResidual": 1,
  "ConvXAsActInputIdx": -1,
  "BiasAsActInputIdx": -1,
  "ResAsActInputIdx": -1,
  "Activation": "RELU",
  "HasBias": 1,
  "HasReLU": 1,
  "TacticName": "sm80_xmma_conv_fprop_smallk_i8i8_i32_f32_nchw_vect_c_32kcrs_vect_c_32_nchw_vect_c_32_warptilesize32x32_stage4_warpsize2x4x1_r1s1_u1v1_hw0_c256_scalebias_beta_relu",
  "TacticValue": "0x7da1544a119637e7",
  "StreamId": 0,
  "Metadata": "[ONNX Layer: Conv_474][ONNX Layer: Add_481][ONNX Layer: Relu_482]"
},{
  "Name": "model.encoders.camera.backbone.layer3.4.conv1.weight + QuantizeLinear_490 + Conv_492 + Relu_493",
  "LayerType": "CaskConvolution",
  "Inputs": [
  {
    "Name": "997",
    "Location": "Device",
    "Dimensions": [4,1024,16,44],
    "Format/Datatype": "Thirty-two wide channel vectorized row major Int8 format"
  }],
  "Outputs": [
  {
    "Name": "1010",
    "Location": "Device",
    "Dimensions": [4,256,16,44],
    "Format/Datatype": "Thirty-two wide channel vectorized row major Int8 format"
  }],
  "ParameterType": "Convolution",
  "Kernel": [1,1],
  "PaddingMode": "kEXPLICIT_ROUND_DOWN",
  "PrePadding": [0,0],
  "PostPadding": [0,0],
  "Stride": [1,1],
  "Dilation": [1,1],
  "OutMaps": 256,
  "Groups": 1,
  "Weights": {"Type": "Int8", "Count": 262144},
  "Bias": {"Type": "Float", "Count": 256},
  "HasSparseWeights": 0,
  "HasDynamicFilter": 0,
  "HasDynamicBias": 0,
  "HasResidual": 0,
  "ConvXAsActInputIdx": -1,
  "BiasAsActInputIdx": -1,
  "ResAsActInputIdx": -1,
  "Activation": "RELU",
  "HasBias": 1,
  "HasReLU": 1,
  "TacticName": "sm80_xmma_fprop_implicit_gemm_interleaved_i8i8_i8i32_f32_nchw_vect_c_32kcrs_vect_c_32_nchw_vect_c_32_tilesize128x96x64_stage3_warpsize4x1x1_g1_tensor16x8x32_simple_t1r1s1",
  "TacticValue": "0x429236a031bfe3e7",
  "StreamId": 0,
  "Metadata": "[ONNX Layer: Conv_492][ONNX Layer: Relu_493]"
},{
  "Name": "model.encoders.camera.backbone.layer3.4.conv2.weight + QuantizeLinear_501 + Conv_503 + Relu_504",
  "LayerType": "CaskConvolution",
  "Inputs": [
  {
    "Name": "1010",
    "Location": "Device",
    "Dimensions": [4,256,16,44],
    "Format/Datatype": "Thirty-two wide channel vectorized row major Int8 format"
  }],
  "Outputs": [
  {
    "Name": "1023",
    "Location": "Device",
    "Dimensions": [4,256,16,44],
    "Format/Datatype": "Thirty-two wide channel vectorized row major Int8 format"
  }],
  "ParameterType": "Convolution",
  "Kernel": [3,3],
  "PaddingMode": "kEXPLICIT_ROUND_DOWN",
  "PrePadding": [1,1],
  "PostPadding": [1,1],
  "Stride": [1,1],
  "Dilation": [1,1],
  "OutMaps": 256,
  "Groups": 1,
  "Weights": {"Type": "Int8", "Count": 589824},
  "Bias": {"Type": "Float", "Count": 256},
  "HasSparseWeights": 0,
  "HasDynamicFilter": 0,
  "HasDynamicBias": 0,
  "HasResidual": 0,
  "ConvXAsActInputIdx": -1,
  "BiasAsActInputIdx": -1,
  "ResAsActInputIdx": -1,
  "Activation": "RELU",
  "HasBias": 1,
  "HasReLU": 1,
  "TacticName": "sm80_xmma_fprop_implicit_gemm_interleaved_i8i8_i8i32_f32_nchw_vect_c_32kcrs_vect_c_32_nchw_vect_c_32_tilesize192x64x64_stage3_warpsize4x1x1_g1_tensor16x8x32_t1r3s3",
  "TacticValue": "0xef01fb6e433afa50",
  "StreamId": 0,
  "Metadata": "[ONNX Layer: Conv_503][ONNX Layer: Relu_504]"
},{
  "Name": "model.encoders.camera.backbone.layer3.4.conv3.weight + QuantizeLinear_512 + Conv_514 + Add_521 + Relu_522",
  "LayerType": "CaskConvolution",
  "Inputs": [
  {
    "Name": "1023",
    "Location": "Device",
    "Dimensions": [4,256,16,44],
    "Format/Datatype": "Thirty-two wide channel vectorized row major Int8 format"
  },
  {
    "Name": "997",
    "Location": "Device",
    "Dimensions": [4,1024,16,44],
    "Format/Datatype": "Thirty-two wide channel vectorized row major Int8 format"
  }],
  "Outputs": [
  {
    "Name": "1043",
    "Location": "Device",
    "Dimensions": [4,1024,16,44],
    "Format/Datatype": "Thirty-two wide channel vectorized row major Int8 format"
  }],
  "ParameterType": "Convolution",
  "Kernel": [1,1],
  "PaddingMode": "kEXPLICIT_ROUND_DOWN",
  "PrePadding": [0,0],
  "PostPadding": [0,0],
  "Stride": [1,1],
  "Dilation": [1,1],
  "OutMaps": 1024,
  "Groups": 1,
  "Weights": {"Type": "Int8", "Count": 262144},
  "Bias": {"Type": "Float", "Count": 1024},
  "HasSparseWeights": 0,
  "HasDynamicFilter": 0,
  "HasDynamicBias": 0,
  "HasResidual": 1,
  "ConvXAsActInputIdx": -1,
  "BiasAsActInputIdx": -1,
  "ResAsActInputIdx": -1,
  "Activation": "RELU",
  "HasBias": 1,
  "HasReLU": 1,
  "TacticName": "sm80_xmma_conv_fprop_smallk_i8i8_i32_f32_nchw_vect_c_32kcrs_vect_c_32_nchw_vect_c_32_warptilesize32x32_stage4_warpsize2x4x1_r1s1_u1v1_hw0_c256_scalebias_beta_relu",
  "TacticValue": "0x7da1544a119637e7",
  "StreamId": 0,
  "Metadata": "[ONNX Layer: Conv_514][ONNX Layer: Add_521][ONNX Layer: Relu_522]"
},{
  "Name": "model.encoders.camera.backbone.layer3.5.conv1.weight + QuantizeLinear_530 + Conv_532 + Relu_533",
  "LayerType": "CaskConvolution",
  "Inputs": [
  {
    "Name": "1043",
    "Location": "Device",
    "Dimensions": [4,1024,16,44],
    "Format/Datatype": "Thirty-two wide channel vectorized row major Int8 format"
  }],
  "Outputs": [
  {
    "Name": "1056",
    "Location": "Device",
    "Dimensions": [4,256,16,44],
    "Format/Datatype": "Thirty-two wide channel vectorized row major Int8 format"
  }],
  "ParameterType": "Convolution",
  "Kernel": [1,1],
  "PaddingMode": "kEXPLICIT_ROUND_DOWN",
  "PrePadding": [0,0],
  "PostPadding": [0,0],
  "Stride": [1,1],
  "Dilation": [1,1],
  "OutMaps": 256,
  "Groups": 1,
  "Weights": {"Type": "Int8", "Count": 262144},
  "Bias": {"Type": "Float", "Count": 256},
  "HasSparseWeights": 0,
  "HasDynamicFilter": 0,
  "HasDynamicBias": 0,
  "HasResidual": 0,
  "ConvXAsActInputIdx": -1,
  "BiasAsActInputIdx": -1,
  "ResAsActInputIdx": -1,
  "Activation": "RELU",
  "HasBias": 1,
  "HasReLU": 1,
  "TacticName": "sm80_xmma_fprop_implicit_gemm_interleaved_i8i8_i8i32_f32_nchw_vect_c_32kcrs_vect_c_32_nchw_vect_c_32_tilesize128x96x64_stage3_warpsize4x1x1_g1_tensor16x8x32_simple_t1r1s1",
  "TacticValue": "0x429236a031bfe3e7",
  "StreamId": 0,
  "Metadata": "[ONNX Layer: Conv_532][ONNX Layer: Relu_533]"
},{
  "Name": "model.encoders.camera.backbone.layer3.5.conv2.weight + QuantizeLinear_541 + Conv_543 + Relu_544",
  "LayerType": "CaskConvolution",
  "Inputs": [
  {
    "Name": "1056",
    "Location": "Device",
    "Dimensions": [4,256,16,44],
    "Format/Datatype": "Thirty-two wide channel vectorized row major Int8 format"
  }],
  "Outputs": [
  {
    "Name": "1069",
    "Location": "Device",
    "Dimensions": [4,256,16,44],
    "Format/Datatype": "Thirty-two wide channel vectorized row major Int8 format"
  }],
  "ParameterType": "Convolution",
  "Kernel": [3,3],
  "PaddingMode": "kEXPLICIT_ROUND_DOWN",
  "PrePadding": [1,1],
  "PostPadding": [1,1],
  "Stride": [1,1],
  "Dilation": [1,1],
  "OutMaps": 256,
  "Groups": 1,
  "Weights": {"Type": "Int8", "Count": 589824},
  "Bias": {"Type": "Float", "Count": 256},
  "HasSparseWeights": 0,
  "HasDynamicFilter": 0,
  "HasDynamicBias": 0,
  "HasResidual": 0,
  "ConvXAsActInputIdx": -1,
  "BiasAsActInputIdx": -1,
  "ResAsActInputIdx": -1,
  "Activation": "RELU",
  "HasBias": 1,
  "HasReLU": 1,
  "TacticName": "sm80_xmma_fprop_implicit_gemm_interleaved_i8i8_i8i32_f32_nchw_vect_c_32kcrs_vect_c_32_nchw_vect_c_32_tilesize192x64x64_stage3_warpsize4x1x1_g1_tensor16x8x32_t1r3s3",
  "TacticValue": "0xef01fb6e433afa50",
  "StreamId": 0,
  "Metadata": "[ONNX Layer: Conv_543][ONNX Layer: Relu_544]"
},{
  "Name": "model.encoders.camera.backbone.layer3.5.conv3.weight + QuantizeLinear_552 + Conv_554 + Add_561 + Relu_562",
  "LayerType": "CaskConvolution",
  "Inputs": [
  {
    "Name": "1069",
    "Location": "Device",
    "Dimensions": [4,256,16,44],
    "Format/Datatype": "Thirty-two wide channel vectorized row major Int8 format"
  },
  {
    "Name": "1043",
    "Location": "Device",
    "Dimensions": [4,1024,16,44],
    "Format/Datatype": "Thirty-two wide channel vectorized row major Int8 format"
  }],
  "Outputs": [
  {
    "Name": "Concat_712_1253_clone_0",
    "Location": "Device",
    "Dimensions": [4,1024,16,44],
    "Format/Datatype": "Thirty-two wide channel vectorized row major Int8 format"
  }],
  "ParameterType": "Convolution",
  "Kernel": [1,1],
  "PaddingMode": "kEXPLICIT_ROUND_DOWN",
  "PrePadding": [0,0],
  "PostPadding": [0,0],
  "Stride": [1,1],
  "Dilation": [1,1],
  "OutMaps": 1024,
  "Groups": 1,
  "Weights": {"Type": "Int8", "Count": 262144},
  "Bias": {"Type": "Float", "Count": 1024},
  "HasSparseWeights": 0,
  "HasDynamicFilter": 0,
  "HasDynamicBias": 0,
  "HasResidual": 1,
  "ConvXAsActInputIdx": -1,
  "BiasAsActInputIdx": -1,
  "ResAsActInputIdx": -1,
  "Activation": "RELU",
  "HasBias": 1,
  "HasReLU": 1,
  "TacticName": "sm80_xmma_conv_fprop_smallk_i8i8_i32_f32_nchw_vect_c_32kcrs_vect_c_32_nchw_vect_c_32_warptilesize32x32_stage4_warpsize2x4x1_r1s1_u1v1_hw0_c256_scalebias_beta_relu",
  "TacticValue": "0x7da1544a119637e7",
  "StreamId": 0,
  "Metadata": "[ONNX Layer: Conv_554][ONNX Layer: Add_561][ONNX Layer: Relu_562]"
},{
  "Name": "model.encoders.camera.backbone.layer4.0.conv1.weight + QuantizeLinear_570 + Conv_572 + Relu_573",
  "LayerType": "CaskConvolution",
  "Inputs": [
  {
    "Name": "Concat_712_1253_clone_0",
    "Location": "Device",
    "Dimensions": [4,1024,16,44],
    "Format/Datatype": "Thirty-two wide channel vectorized row major Int8 format"
  }],
  "Outputs": [
  {
    "Name": "1102",
    "Location": "Device",
    "Dimensions": [4,512,16,44],
    "Format/Datatype": "Thirty-two wide channel vectorized row major Int8 format"
  }],
  "ParameterType": "Convolution",
  "Kernel": [1,1],
  "PaddingMode": "kEXPLICIT_ROUND_DOWN",
  "PrePadding": [0,0],
  "PostPadding": [0,0],
  "Stride": [1,1],
  "Dilation": [1,1],
  "OutMaps": 512,
  "Groups": 1,
  "Weights": {"Type": "Int8", "Count": 524288},
  "Bias": {"Type": "Float", "Count": 512},
  "HasSparseWeights": 0,
  "HasDynamicFilter": 0,
  "HasDynamicBias": 0,
  "HasResidual": 0,
  "ConvXAsActInputIdx": -1,
  "BiasAsActInputIdx": -1,
  "ResAsActInputIdx": -1,
  "Activation": "RELU",
  "HasBias": 1,
  "HasReLU": 1,
  "TacticName": "sm80_xmma_fprop_implicit_gemm_interleaved_i8i8_i8i32_f32_nchw_vect_c_32kcrs_vect_c_32_nchw_vect_c_32_tilesize192x128x64_stage3_warpsize4x2x1_g1_tensor16x8x32_simple_t1r1s1",
  "TacticValue": "0xb2cc5e08f6b66610",
  "StreamId": 0,
  "Metadata": "[ONNX Layer: Conv_572][ONNX Layer: Relu_573]"
},{
  "Name": "model.encoders.camera.backbone.layer4.0.downsample.0.weight + QuantizeLinear_602 + Conv_604",
  "LayerType": "CaskConvolution",
  "Inputs": [
  {
    "Name": "Concat_712_1253_clone_0",
    "Location": "Device",
    "Dimensions": [4,1024,16,44],
    "Format/Datatype": "Thirty-two wide channel vectorized row major Int8 format"
  }],
  "Outputs": [
  {
    "Name": "1139",
    "Location": "Device",
    "Dimensions": [4,2048,8,22],
    "Format/Datatype": "Thirty-two wide channel vectorized row major Int8 format"
  }],
  "ParameterType": "Convolution",
  "Kernel": [1,1],
  "PaddingMode": "kEXPLICIT_ROUND_DOWN",
  "PrePadding": [0,0],
  "PostPadding": [0,0],
  "Stride": [2,2],
  "Dilation": [1,1],
  "OutMaps": 2048,
  "Groups": 1,
  "Weights": {"Type": "Int8", "Count": 2097152},
  "Bias": {"Type": "Float", "Count": 2048},
  "HasSparseWeights": 0,
  "HasDynamicFilter": 0,
  "HasDynamicBias": 0,
  "HasResidual": 0,
  "ConvXAsActInputIdx": -1,
  "BiasAsActInputIdx": -1,
  "ResAsActInputIdx": -1,
  "Activation": "NONE",
  "HasBias": 1,
  "HasReLU": 0,
  "TacticName": "sm80_xmma_fprop_implicit_gemm_interleaved_i8i8_i8i32_f32_nchw_vect_c_32kcrs_vect_c_32_nchw_vect_c_32_tilesize128x192x64_stage3_warpsize4x2x1_g1_tensor16x8x32_t1r1s1",
  "TacticValue": "0x01bc9ada86b72c5f",
  "StreamId": 0,
  "Metadata": "[ONNX Layer: Conv_604]"
},{
  "Name": "model.encoders.camera.backbone.layer4.0.conv2.weight + QuantizeLinear_581 + Conv_583 + Relu_584",
  "LayerType": "CaskConvolution",
  "Inputs": [
  {
    "Name": "1102",
    "Location": "Device",
    "Dimensions": [4,512,16,44],
    "Format/Datatype": "Thirty-two wide channel vectorized row major Int8 format"
  }],
  "Outputs": [
  {
    "Name": "1115",
    "Location": "Device",
    "Dimensions": [4,512,8,22],
    "Format/Datatype": "Thirty-two wide channel vectorized row major Int8 format"
  }],
  "ParameterType": "Convolution",
  "Kernel": [3,3],
  "PaddingMode": "kEXPLICIT_ROUND_DOWN",
  "PrePadding": [1,1],
  "PostPadding": [1,1],
  "Stride": [2,2],
  "Dilation": [1,1],
  "OutMaps": 512,
  "Groups": 1,
  "Weights": {"Type": "Int8", "Count": 2359296},
  "Bias": {"Type": "Float", "Count": 512},
  "HasSparseWeights": 0,
  "HasDynamicFilter": 0,
  "HasDynamicBias": 0,
  "HasResidual": 0,
  "ConvXAsActInputIdx": -1,
  "BiasAsActInputIdx": -1,
  "ResAsActInputIdx": -1,
  "Activation": "RELU",
  "HasBias": 1,
  "HasReLU": 1,
  "TacticName": "sm80_xmma_fprop_implicit_gemm_interleaved_i8i8_i8i32_f32_nchw_vect_c_32kcrs_vect_c_32_nchw_vect_c_32_tilesize96x64x64_stage3_warpsize2x2x1_g1_tensor16x8x32",
  "TacticValue": "0x99901a83d7176ba9",
  "StreamId": 0,
  "Metadata": "[ONNX Layer: Conv_583][ONNX Layer: Relu_584]"
},{
  "Name": "model.encoders.camera.backbone.layer4.0.conv3.weight + QuantizeLinear_592 + Conv_594 + Add_611 + Relu_612",
  "LayerType": "CaskConvolution",
  "Inputs": [
  {
    "Name": "1115",
    "Location": "Device",
    "Dimensions": [4,512,8,22],
    "Format/Datatype": "Thirty-two wide channel vectorized row major Int8 format"
  },
  {
    "Name": "1139",
    "Location": "Device",
    "Dimensions": [4,2048,8,22],
    "Format/Datatype": "Thirty-two wide channel vectorized row major Int8 format"
  }],
  "Outputs": [
  {
    "Name": "1147",
    "Location": "Device",
    "Dimensions": [4,2048,8,22],
    "Format/Datatype": "Thirty-two wide channel vectorized row major Int8 format"
  }],
  "ParameterType": "Convolution",
  "Kernel": [1,1],
  "PaddingMode": "kEXPLICIT_ROUND_DOWN",
  "PrePadding": [0,0],
  "PostPadding": [0,0],
  "Stride": [1,1],
  "Dilation": [1,1],
  "OutMaps": 2048,
  "Groups": 1,
  "Weights": {"Type": "Int8", "Count": 1048576},
  "Bias": {"Type": "Float", "Count": 2048},
  "HasSparseWeights": 0,
  "HasDynamicFilter": 0,
  "HasDynamicBias": 0,
  "HasResidual": 1,
  "ConvXAsActInputIdx": -1,
  "BiasAsActInputIdx": -1,
  "ResAsActInputIdx": -1,
  "Activation": "RELU",
  "HasBias": 1,
  "HasReLU": 1,
  "TacticName": "sm80_xmma_fprop_implicit_gemm_interleaved_i8i8_i8i32_f32_nchw_vect_c_32kcrs_vect_c_32_nchw_vect_c_32_tilesize96x128x64_stage3_warpsize2x2x1_g1_tensor16x8x32_simple_t1r1s1",
  "TacticValue": "0x764ba04bb839d539",
  "StreamId": 0,
  "Metadata": "[ONNX Layer: Conv_594][ONNX Layer: Add_611][ONNX Layer: Relu_612]"
},{
  "Name": "model.encoders.camera.backbone.layer4.1.conv1.weight + QuantizeLinear_620 + Conv_622 + Relu_623",
  "LayerType": "CaskConvolution",
  "Inputs": [
  {
    "Name": "1147",
    "Location": "Device",
    "Dimensions": [4,2048,8,22],
    "Format/Datatype": "Thirty-two wide channel vectorized row major Int8 format"
  }],
  "Outputs": [
  {
    "Name": "1160",
    "Location": "Device",
    "Dimensions": [4,512,8,22],
    "Format/Datatype": "Thirty-two wide channel vectorized row major Int8 format"
  }],
  "ParameterType": "Convolution",
  "Kernel": [1,1],
  "PaddingMode": "kEXPLICIT_ROUND_DOWN",
  "PrePadding": [0,0],
  "PostPadding": [0,0],
  "Stride": [1,1],
  "Dilation": [1,1],
  "OutMaps": 512,
  "Groups": 1,
  "Weights": {"Type": "Int8", "Count": 1048576},
  "Bias": {"Type": "Float", "Count": 512},
  "HasSparseWeights": 0,
  "HasDynamicFilter": 0,
  "HasDynamicBias": 0,
  "HasResidual": 0,
  "ConvXAsActInputIdx": -1,
  "BiasAsActInputIdx": -1,
  "ResAsActInputIdx": -1,
  "Activation": "RELU",
  "HasBias": 1,
  "HasReLU": 1,
  "TacticName": "sm80_xmma_fprop_implicit_gemm_interleaved_i8i8_i8i32_f32_nchw_vect_c_32kcrs_vect_c_32_nchw_vect_c_32_tilesize96x64x64_stage3_warpsize2x2x1_g1_tensor16x8x32_simple_t1r1s1",
  "TacticValue": "0x483ad1560c6e5e27",
  "StreamId": 0,
  "Metadata": "[ONNX Layer: Conv_622][ONNX Layer: Relu_623]"
},{
  "Name": "model.encoders.camera.backbone.layer4.1.conv2.weight + QuantizeLinear_631 + Conv_633 + Relu_634",
  "LayerType": "CaskConvolution",
  "Inputs": [
  {
    "Name": "1160",
    "Location": "Device",
    "Dimensions": [4,512,8,22],
    "Format/Datatype": "Thirty-two wide channel vectorized row major Int8 format"
  }],
  "Outputs": [
  {
    "Name": "1173",
    "Location": "Device",
    "Dimensions": [4,512,8,22],
    "Format/Datatype": "Thirty-two wide channel vectorized row major Int8 format"
  }],
  "ParameterType": "Convolution",
  "Kernel": [3,3],
  "PaddingMode": "kEXPLICIT_ROUND_DOWN",
  "PrePadding": [1,1],
  "PostPadding": [1,1],
  "Stride": [1,1],
  "Dilation": [1,1],
  "OutMaps": 512,
  "Groups": 1,
  "Weights": {"Type": "Int8", "Count": 2359296},
  "Bias": {"Type": "Float", "Count": 512},
  "HasSparseWeights": 0,
  "HasDynamicFilter": 0,
  "HasDynamicBias": 0,
  "HasResidual": 0,
  "ConvXAsActInputIdx": -1,
  "BiasAsActInputIdx": -1,
  "ResAsActInputIdx": -1,
  "Activation": "RELU",
  "HasBias": 1,
  "HasReLU": 1,
  "TacticName": "sm80_xmma_fprop_implicit_gemm_interleaved_i8i8_i8i32_f32_nchw_vect_c_32kcrs_vect_c_32_nchw_vect_c_32_tilesize96x64x64_stage3_warpsize2x2x1_g1_tensor16x8x32",
  "TacticValue": "0x99901a83d7176ba9",
  "StreamId": 0,
  "Metadata": "[ONNX Layer: Conv_633][ONNX Layer: Relu_634]"
},{
  "Name": "model.encoders.camera.backbone.layer4.1.conv3.weight + QuantizeLinear_642 + Conv_644 + Add_651 + Relu_652",
  "LayerType": "CaskConvolution",
  "Inputs": [
  {
    "Name": "1173",
    "Location": "Device",
    "Dimensions": [4,512,8,22],
    "Format/Datatype": "Thirty-two wide channel vectorized row major Int8 format"
  },
  {
    "Name": "1147",
    "Location": "Device",
    "Dimensions": [4,2048,8,22],
    "Format/Datatype": "Thirty-two wide channel vectorized row major Int8 format"
  }],
  "Outputs": [
  {
    "Name": "1193",
    "Location": "Device",
    "Dimensions": [4,2048,8,22],
    "Format/Datatype": "Thirty-two wide channel vectorized row major Int8 format"
  }],
  "ParameterType": "Convolution",
  "Kernel": [1,1],
  "PaddingMode": "kEXPLICIT_ROUND_DOWN",
  "PrePadding": [0,0],
  "PostPadding": [0,0],
  "Stride": [1,1],
  "Dilation": [1,1],
  "OutMaps": 2048,
  "Groups": 1,
  "Weights": {"Type": "Int8", "Count": 1048576},
  "Bias": {"Type": "Float", "Count": 2048},
  "HasSparseWeights": 0,
  "HasDynamicFilter": 0,
  "HasDynamicBias": 0,
  "HasResidual": 1,
  "ConvXAsActInputIdx": -1,
  "BiasAsActInputIdx": -1,
  "ResAsActInputIdx": -1,
  "Activation": "RELU",
  "HasBias": 1,
  "HasReLU": 1,
  "TacticName": "sm80_xmma_fprop_implicit_gemm_interleaved_i8i8_i8i32_f32_nchw_vect_c_32kcrs_vect_c_32_nchw_vect_c_32_tilesize96x128x64_stage3_warpsize2x2x1_g1_tensor16x8x32_simple_t1r1s1",
  "TacticValue": "0x764ba04bb839d539",
  "StreamId": 0,
  "Metadata": "[ONNX Layer: Conv_644][ONNX Layer: Add_651][ONNX Layer: Relu_652]"
},{
  "Name": "model.encoders.camera.backbone.layer4.2.conv1.weight + QuantizeLinear_660 + Conv_662 + Relu_663",
  "LayerType": "CaskConvolution",
  "Inputs": [
  {
    "Name": "1193",
    "Location": "Device",
    "Dimensions": [4,2048,8,22],
    "Format/Datatype": "Thirty-two wide channel vectorized row major Int8 format"
  }],
  "Outputs": [
  {
    "Name": "1206",
    "Location": "Device",
    "Dimensions": [4,512,8,22],
    "Format/Datatype": "Thirty-two wide channel vectorized row major Int8 format"
  }],
  "ParameterType": "Convolution",
  "Kernel": [1,1],
  "PaddingMode": "kEXPLICIT_ROUND_DOWN",
  "PrePadding": [0,0],
  "PostPadding": [0,0],
  "Stride": [1,1],
  "Dilation": [1,1],
  "OutMaps": 512,
  "Groups": 1,
  "Weights": {"Type": "Int8", "Count": 1048576},
  "Bias": {"Type": "Float", "Count": 512},
  "HasSparseWeights": 0,
  "HasDynamicFilter": 0,
  "HasDynamicBias": 0,
  "HasResidual": 0,
  "ConvXAsActInputIdx": -1,
  "BiasAsActInputIdx": -1,
  "ResAsActInputIdx": -1,
  "Activation": "RELU",
  "HasBias": 1,
  "HasReLU": 1,
  "TacticName": "sm80_xmma_fprop_implicit_gemm_interleaved_i8i8_i8i32_f32_nchw_vect_c_32kcrs_vect_c_32_nchw_vect_c_32_tilesize96x64x64_stage3_warpsize2x2x1_g1_tensor16x8x32_simple_t1r1s1",
  "TacticValue": "0x483ad1560c6e5e27",
  "StreamId": 0,
  "Metadata": "[ONNX Layer: Conv_662][ONNX Layer: Relu_663]"
},{
  "Name": "model.encoders.camera.backbone.layer4.2.conv2.weight + QuantizeLinear_671 + Conv_673 + Relu_674",
  "LayerType": "CaskConvolution",
  "Inputs": [
  {
    "Name": "1206",
    "Location": "Device",
    "Dimensions": [4,512,8,22],
    "Format/Datatype": "Thirty-two wide channel vectorized row major Int8 format"
  }],
  "Outputs": [
  {
    "Name": "1219",
    "Location": "Device",
    "Dimensions": [4,512,8,22],
    "Format/Datatype": "Thirty-two wide channel vectorized row major Int8 format"
  }],
  "ParameterType": "Convolution",
  "Kernel": [3,3],
  "PaddingMode": "kEXPLICIT_ROUND_DOWN",
  "PrePadding": [1,1],
  "PostPadding": [1,1],
  "Stride": [1,1],
  "Dilation": [1,1],
  "OutMaps": 512,
  "Groups": 1,
  "Weights": {"Type": "Int8", "Count": 2359296},
  "Bias": {"Type": "Float", "Count": 512},
  "HasSparseWeights": 0,
  "HasDynamicFilter": 0,
  "HasDynamicBias": 0,
  "HasResidual": 0,
  "ConvXAsActInputIdx": -1,
  "BiasAsActInputIdx": -1,
  "ResAsActInputIdx": -1,
  "Activation": "RELU",
  "HasBias": 1,
  "HasReLU": 1,
  "TacticName": "sm80_xmma_fprop_implicit_gemm_interleaved_i8i8_i8i32_f32_nchw_vect_c_32kcrs_vect_c_32_nchw_vect_c_32_tilesize96x64x64_stage3_warpsize2x2x1_g1_tensor16x8x32",
  "TacticValue": "0x99901a83d7176ba9",
  "StreamId": 0,
  "Metadata": "[ONNX Layer: Conv_673][ONNX Layer: Relu_674]"
},{
  "Name": "model.encoders.camera.backbone.layer4.2.conv3.weight + QuantizeLinear_682 + Conv_684 + Add_691 + Relu_692",
  "LayerType": "CaskConvolution",
  "Inputs": [
  {
    "Name": "1219",
    "Location": "Device",
    "Dimensions": [4,512,8,22],
    "Format/Datatype": "Thirty-two wide channel vectorized row major Int8 format"
  },
  {
    "Name": "1193",
    "Location": "Device",
    "Dimensions": [4,2048,8,22],
    "Format/Datatype": "Thirty-two wide channel vectorized row major Int8 format"
  }],
  "Outputs": [
  {
    "Name": "1247",
    "Location": "Device",
    "Dimensions": [4,2048,8,22],
    "Format/Datatype": "Thirty-two wide channel vectorized row major Int8 format"
  }],
  "ParameterType": "Convolution",
  "Kernel": [1,1],
  "PaddingMode": "kEXPLICIT_ROUND_DOWN",
  "PrePadding": [0,0],
  "PostPadding": [0,0],
  "Stride": [1,1],
  "Dilation": [1,1],
  "OutMaps": 2048,
  "Groups": 1,
  "Weights": {"Type": "Int8", "Count": 1048576},
  "Bias": {"Type": "Float", "Count": 2048},
  "HasSparseWeights": 0,
  "HasDynamicFilter": 0,
  "HasDynamicBias": 0,
  "HasResidual": 1,
  "ConvXAsActInputIdx": -1,
  "BiasAsActInputIdx": -1,
  "ResAsActInputIdx": -1,
  "Activation": "RELU",
  "HasBias": 1,
  "HasReLU": 1,
  "TacticName": "sm80_xmma_fprop_implicit_gemm_interleaved_i8i8_i8i32_f32_nchw_vect_c_32kcrs_vect_c_32_nchw_vect_c_32_tilesize96x128x64_stage3_warpsize2x2x1_g1_tensor16x8x32_simple_t1r1s1",
  "TacticValue": "0x764ba04bb839d539",
  "StreamId": 0,
  "Metadata": "[ONNX Layer: Conv_684][ONNX Layer: Add_691][ONNX Layer: Relu_692]"
},{
  "Name": "Resize_699",
  "LayerType": "Resize",
  "Inputs": [
  {
    "Name": "1247",
    "Location": "Device",
    "Dimensions": [4,2048,8,22],
    "Format/Datatype": "Thirty-two wide channel vectorized row major Int8 format"
  }],
  "Outputs": [
  {
    "Name": "Concat_712_1259_clone_1",
    "Location": "Device",
    "Dimensions": [4,2048,16,44],
    "Format/Datatype": "Thirty-two wide channel vectorized row major Int8 format"
  }],
  "ParameterType": "Resize",
  "ResizeMode": "LINEAR",
  "ResizeScales": [0, 0, 0, 0, 0, 0, 0, 0],
  "ExcludeOutside": 0,
  "CubicCoeff": -0.75,
  "CoordTransform": "kHALF_PIXEL",
  "ResizeSelector": "kUPPER",
  "NNRounding": "kFLOOR",
  "TacticValue": "0x0000000000000008",
  "StreamId": 0,
  "Metadata": "[ONNX Layer: Resize_699]"
},{
  "Name": "Concat_712_1253_clone_0 copy",
  "LayerType": "Reformat",
  "Inputs": [
  {
    "Name": "Concat_712_1253_clone_0",
    "Location": "Device",
    "Dimensions": [4,1024,16,44],
    "Format/Datatype": "Thirty-two wide channel vectorized row major Int8 format"
  }],
  "Outputs": [
  {
    "Name": "1263",
    "Location": "Device",
    "Dimensions": [4,1024,16,44],
    "Format/Datatype": "Thirty-two wide channel vectorized row major Int8 format"
  }],
  "ParameterType": "Reformat",
  "Origin": "CONCAT",
  "TacticValue": "0x0000000000000000",
  "StreamId": 0,
  "Metadata": "[ONNX Layer: Concat_712]"
},{
  "Name": "Concat_712_1259_clone_1 copy",
  "LayerType": "Reformat",
  "Inputs": [
  {
    "Name": "Concat_712_1259_clone_1",
    "Location": "Device",
    "Dimensions": [4,2048,16,44],
    "Format/Datatype": "Thirty-two wide channel vectorized row major Int8 format"
  }],
  "Outputs": [
  {
    "Name": "1263",
    "Location": "Device",
    "Dimensions": [4,2048,16,44],
    "Format/Datatype": "Thirty-two wide channel vectorized row major Int8 format"
  }],
  "ParameterType": "Reformat",
  "Origin": "CONCAT",
  "TacticValue": "0x0000000000000000",
  "StreamId": 0,
  "Metadata": "[ONNX Layer: Concat_712]"
},{
  "Name": "model.encoders.camera.neck.lateral_convs.1.conv.weight + QuantizeLinear_720 + Conv_722 + Relu_723",
  "LayerType": "CaskConvolution",
  "Inputs": [
  {
    "Name": "1263",
    "Location": "Device",
    "Dimensions": [4,3072,16,44],
    "Format/Datatype": "Thirty-two wide channel vectorized row major Int8 format"
  }],
  "Outputs": [
  {
    "Name": "1276",
    "Location": "Device",
    "Dimensions": [4,256,16,44],
    "Format/Datatype": "Thirty-two wide channel vectorized row major Int8 format"
  }],
  "ParameterType": "Convolution",
  "Kernel": [1,1],
  "PaddingMode": "kEXPLICIT_ROUND_DOWN",
  "PrePadding": [0,0],
  "PostPadding": [0,0],
  "Stride": [1,1],
  "Dilation": [1,1],
  "OutMaps": 256,
  "Groups": 1,
  "Weights": {"Type": "Int8", "Count": 786432},
  "Bias": {"Type": "Float", "Count": 256},
  "HasSparseWeights": 0,
  "HasDynamicFilter": 0,
  "HasDynamicBias": 0,
  "HasResidual": 0,
  "ConvXAsActInputIdx": -1,
  "BiasAsActInputIdx": -1,
  "ResAsActInputIdx": -1,
  "Activation": "RELU",
  "HasBias": 1,
  "HasReLU": 1,
  "TacticName": "sm80_xmma_fprop_implicit_gemm_interleaved_i8i8_i8i32_f32_nchw_vect_c_32kcrs_vect_c_32_nchw_vect_c_32_tilesize96x128x64_stage3_warpsize2x2x1_g1_tensor16x8x32_t1r1s1",
  "TacticValue": "0x79a4e52543793dbe",
  "StreamId": 0,
  "Metadata": "[ONNX Layer: Conv_722][ONNX Layer: Relu_723]"
},{
  "Name": "model.encoders.camera.neck.fpn_convs.1.conv.weight + QuantizeLinear_731 + Conv_733 + Relu_734",
  "LayerType": "CaskConvolution",
  "Inputs": [
  {
    "Name": "1276",
    "Location": "Device",
    "Dimensions": [4,256,16,44],
    "Format/Datatype": "Thirty-two wide channel vectorized row major Int8 format"
  }],
  "Outputs": [
  {
    "Name": "1297",
    "Location": "Device",
    "Dimensions": [4,256,16,44],
    "Format/Datatype": "Thirty-two wide channel vectorized row major Int8 format"
  }],
  "ParameterType": "Convolution",
  "Kernel": [3,3],
  "PaddingMode": "kEXPLICIT_ROUND_DOWN",
  "PrePadding": [1,1],
  "PostPadding": [1,1],
  "Stride": [1,1],
  "Dilation": [1,1],
  "OutMaps": 256,
  "Groups": 1,
  "Weights": {"Type": "Int8", "Count": 589824},
  "Bias": {"Type": "Float", "Count": 256},
  "HasSparseWeights": 0,
  "HasDynamicFilter": 0,
  "HasDynamicBias": 0,
  "HasResidual": 0,
  "ConvXAsActInputIdx": -1,
  "BiasAsActInputIdx": -1,
  "ResAsActInputIdx": -1,
  "Activation": "RELU",
  "HasBias": 1,
  "HasReLU": 1,
  "TacticName": "sm80_xmma_fprop_implicit_gemm_interleaved_i8i8_i8i32_f32_nchw_vect_c_32kcrs_vect_c_32_nchw_vect_c_32_tilesize192x64x64_stage3_warpsize4x1x1_g1_tensor16x8x32_t1r3s3",
  "TacticValue": "0xef01fb6e433afa50",
  "StreamId": 0,
  "Metadata": "[ONNX Layer: Conv_733][ONNX Layer: Relu_734]"
},{
  "Name": "Resize_741",
  "LayerType": "Resize",
  "Inputs": [
  {
    "Name": "1297",
    "Location": "Device",
    "Dimensions": [4,256,16,44],
    "Format/Datatype": "Thirty-two wide channel vectorized row major Int8 format"
  }],
  "Outputs": [
  {
    "Name": "Concat_754_1309_clone_1",
    "Location": "Device",
    "Dimensions": [4,256,32,88],
    "Format/Datatype": "Thirty-two wide channel vectorized row major Int8 format"
  }],
  "ParameterType": "Resize",
  "ResizeMode": "LINEAR",
  "ResizeScales": [0, 0, 0, 0, 0, 0, 0, 0],
  "ExcludeOutside": 0,
  "CubicCoeff": -0.75,
  "CoordTransform": "kHALF_PIXEL",
  "ResizeSelector": "kUPPER",
  "NNRounding": "kFLOOR",
  "TacticValue": "0x0000000000000007",
  "StreamId": 0,
  "Metadata": "[ONNX Layer: Resize_741]"
},{
  "Name": "Concat_754_1303_clone_0 copy",
  "LayerType": "Reformat",
  "Inputs": [
  {
    "Name": "Concat_754_1303_clone_0",
    "Location": "Device",
    "Dimensions": [4,512,32,88],
    "Format/Datatype": "Thirty-two wide channel vectorized row major Int8 format"
  }],
  "Outputs": [
  {
    "Name": "1313",
    "Location": "Device",
    "Dimensions": [4,512,32,88],
    "Format/Datatype": "Thirty-two wide channel vectorized row major Int8 format"
  }],
  "ParameterType": "Reformat",
  "Origin": "CONCAT",
  "TacticValue": "0x0000000000000000",
  "StreamId": 0,
  "Metadata": "[ONNX Layer: Concat_754]"
},{
  "Name": "Concat_754_1309_clone_1 copy",
  "LayerType": "Reformat",
  "Inputs": [
  {
    "Name": "Concat_754_1309_clone_1",
    "Location": "Device",
    "Dimensions": [4,256,32,88],
    "Format/Datatype": "Thirty-two wide channel vectorized row major Int8 format"
  }],
  "Outputs": [
  {
    "Name": "1313",
    "Location": "Device",
    "Dimensions": [4,256,32,88],
    "Format/Datatype": "Thirty-two wide channel vectorized row major Int8 format"
  }],
  "ParameterType": "Reformat",
  "Origin": "CONCAT",
  "TacticValue": "0x0000000000000000",
  "StreamId": 0,
  "Metadata": "[ONNX Layer: Concat_754]"
},{
  "Name": "model.encoders.camera.neck.lateral_convs.0.conv.weight + QuantizeLinear_762 + Conv_764 + Relu_765",
  "LayerType": "CaskConvolution",
  "Inputs": [
  {
    "Name": "1313",
    "Location": "Device",
    "Dimensions": [4,768,32,88],
    "Format/Datatype": "Thirty-two wide channel vectorized row major Int8 format"
  }],
  "Outputs": [
  {
    "Name": "1326",
    "Location": "Device",
    "Dimensions": [4,256,32,88],
    "Format/Datatype": "Thirty-two wide channel vectorized row major Int8 format"
  }],
  "ParameterType": "Convolution",
  "Kernel": [1,1],
  "PaddingMode": "kEXPLICIT_ROUND_DOWN",
  "PrePadding": [0,0],
  "PostPadding": [0,0],
  "Stride": [1,1],
  "Dilation": [1,1],
  "OutMaps": 256,
  "Groups": 1,
  "Weights": {"Type": "Int8", "Count": 196608},
  "Bias": {"Type": "Float", "Count": 256},
  "HasSparseWeights": 0,
  "HasDynamicFilter": 0,
  "HasDynamicBias": 0,
  "HasResidual": 0,
  "ConvXAsActInputIdx": -1,
  "BiasAsActInputIdx": -1,
  "ResAsActInputIdx": -1,
  "Activation": "RELU",
  "HasBias": 1,
  "HasReLU": 1,
  "TacticName": "sm80_xmma_fprop_implicit_gemm_interleaved_i8i8_i8i32_f32_nchw_vect_c_32kcrs_vect_c_32_nchw_vect_c_32_tilesize96x128x64_stage3_warpsize2x2x1_g1_tensor16x8x32",
  "TacticValue": "0x87620679fb5f37df",
  "StreamId": 0,
  "Metadata": "[ONNX Layer: Conv_764][ONNX Layer: Relu_765]"
},{
  "Name": "model.encoders.camera.neck.fpn_convs.0.conv.weight + QuantizeLinear_773 + Conv_775 + Relu_776",
  "LayerType": "CaskConvolution",
  "Inputs": [
  {
    "Name": "1326",
    "Location": "Device",
    "Dimensions": [4,256,32,88],
    "Format/Datatype": "Thirty-two wide channel vectorized row major Int8 format"
  }],
  "Outputs": [
  {
    "Name": "1411",
    "Location": "Device",
    "Dimensions": [4,256,32,88],
    "Format/Datatype": "Thirty-two wide channel vectorized row major Int8 format"
  }],
  "ParameterType": "Convolution",
  "Kernel": [3,3],
  "PaddingMode": "kEXPLICIT_ROUND_DOWN",
  "PrePadding": [1,1],
  "PostPadding": [1,1],
  "Stride": [1,1],
  "Dilation": [1,1],
  "OutMaps": 256,
  "Groups": 1,
  "Weights": {"Type": "Int8", "Count": 589824},
  "Bias": {"Type": "Float", "Count": 256},
  "HasSparseWeights": 0,
  "HasDynamicFilter": 0,
  "HasDynamicBias": 0,
  "HasResidual": 0,
  "ConvXAsActInputIdx": -1,
  "BiasAsActInputIdx": -1,
  "ResAsActInputIdx": -1,
  "Activation": "RELU",
  "HasBias": 1,
  "HasReLU": 1,
  "TacticName": "sm80_xmma_fprop_implicit_gemm_interleaved_i8i8_i8i32_f32_nchw_vect_c_32kcrs_vect_c_32_nchw_vect_c_32_tilesize192x64x64_stage3_warpsize4x1x1_g1_tensor16x8x32_t1r3s3",
  "TacticValue": "0xef01fb6e433afa50",
  "StreamId": 0,
  "Metadata": "[ONNX Layer: Conv_775][ONNX Layer: Relu_776]"
},{
  "Name": "model.encoders.camera.vtransform.depthnet.0.weight + QuantizeLinear_822 + Conv_824 + Relu_825",
  "LayerType": "CaskConvolution",
  "Inputs": [
  {
    "Name": "1411",
    "Location": "Device",
    "Dimensions": [4,320,32,88],
    "Format/Datatype": "Thirty-two wide channel vectorized row major Int8 format"
  }],
  "Outputs": [
  {
    "Name": "1424",
    "Location": "Device",
    "Dimensions": [4,256,32,88],
    "Format/Datatype": "Thirty-two wide channel vectorized row major Int8 format"
  }],
  "ParameterType": "Convolution",
  "Kernel": [3,3],
  "PaddingMode": "kEXPLICIT_ROUND_DOWN",
  "PrePadding": [1,1],
  "PostPadding": [1,1],
  "Stride": [1,1],
  "Dilation": [1,1],
  "OutMaps": 256,
  "Groups": 1,
  "Weights": {"Type": "Int8", "Count": 737280},
  "Bias": {"Type": "Float", "Count": 256},
  "HasSparseWeights": 0,
  "HasDynamicFilter": 0,
  "HasDynamicBias": 0,
  "HasResidual": 0,
  "ConvXAsActInputIdx": -1,
  "BiasAsActInputIdx": -1,
  "ResAsActInputIdx": -1,
  "Activation": "RELU",
  "HasBias": 1,
  "HasReLU": 1,
  "TacticName": "sm80_xmma_fprop_implicit_gemm_interleaved_i8i8_i8i32_f32_nchw_vect_c_32kcrs_vect_c_32_nchw_vect_c_32_tilesize192x64x64_stage3_warpsize4x1x1_g1_tensor16x8x32_t1r3s3",
  "TacticValue": "0xef01fb6e433afa50",
  "StreamId": 0,
  "Metadata": "[ONNX Layer: Conv_824][ONNX Layer: Relu_825]"
},{
  "Name": "model.encoders.camera.vtransform.depthnet.3.weight + QuantizeLinear_833 + Conv_835 + Relu_836",
  "LayerType": "CaskConvolution",
  "Inputs": [
  {
    "Name": "1424",
    "Location": "Device",
    "Dimensions": [4,256,32,88],
    "Format/Datatype": "Thirty-two wide channel vectorized row major Int8 format"
  }],
  "Outputs": [
  {
    "Name": "1437",
    "Location": "Device",
    "Dimensions": [4,256,32,88],
    "Format/Datatype": "Thirty-two wide channel vectorized row major Int8 format"
  }],
  "ParameterType": "Convolution",
  "Kernel": [3,3],
  "PaddingMode": "kEXPLICIT_ROUND_DOWN",
  "PrePadding": [1,1],
  "PostPadding": [1,1],
  "Stride": [1,1],
  "Dilation": [1,1],
  "OutMaps": 256,
  "Groups": 1,
  "Weights": {"Type": "Int8", "Count": 589824},
  "Bias": {"Type": "Float", "Count": 256},
  "HasSparseWeights": 0,
  "HasDynamicFilter": 0,
  "HasDynamicBias": 0,
  "HasResidual": 0,
  "ConvXAsActInputIdx": -1,
  "BiasAsActInputIdx": -1,
  "ResAsActInputIdx": -1,
  "Activation": "RELU",
  "HasBias": 1,
  "HasReLU": 1,
  "TacticName": "sm80_xmma_fprop_implicit_gemm_interleaved_i8i8_i8i32_f32_nchw_vect_c_32kcrs_vect_c_32_nchw_vect_c_32_tilesize192x64x64_stage3_warpsize4x1x1_g1_tensor16x8x32_t1r3s3",
  "TacticValue": "0xef01fb6e433afa50",
  "StreamId": 0,
  "Metadata": "[ONNX Layer: Conv_835][ONNX Layer: Relu_836]"
},{
  "Name": "model.encoders.camera.vtransform.depthnet.6.weight + QuantizeLinear_844 + Conv_846",
  "LayerType": "CaskConvolution",
  "Inputs": [
  {
    "Name": "1437",
    "Location": "Device",
    "Dimensions": [4,256,32,88],
    "Format/Datatype": "Thirty-two wide channel vectorized row major Int8 format"
  }],
  "Outputs": [
  {
    "Name": "1446",
    "Location": "Device",
    "Dimensions": [4,198,32,88],
    "Format/Datatype": "Thirty-two wide channel vectorized row major FP16 format"
  }],
  "ParameterType": "Convolution",
  "Kernel": [1,1],
  "PaddingMode": "kEXPLICIT_ROUND_DOWN",
  "PrePadding": [0,0],
  "PostPadding": [0,0],
  "Stride": [1,1],
  "Dilation": [1,1],
  "OutMaps": 198,
  "Groups": 1,
  "Weights": {"Type": "Int8", "Count": 50688},
  "Bias": {"Type": "Float", "Count": 198},
  "HasSparseWeights": 0,
  "HasDynamicFilter": 0,
  "HasDynamicBias": 0,
  "HasResidual": 0,
  "ConvXAsActInputIdx": -1,
  "BiasAsActInputIdx": -1,
  "ResAsActInputIdx": -1,
  "Activation": "NONE",
  "HasBias": 1,
  "HasReLU": 0,
  "TacticName": "sm80_xmma_fprop_implicit_gemm_interleaved_i8f16_i8i32_f32_nchw_vect_c_32kcrs_vect_c_32_nchw_vect_c_32_tilesize64x64x64_stage6_warpsize2x2x1_g1_tensor16x8x32_simple_t1r1s1",
  "TacticValue": "0x8e1dd2962c589dd4",
  "StreamId": 0,
  "Metadata": "[ONNX Layer: Conv_846]"
},{
  "Name": "Slice_851",
  "LayerType": "Reformat",
  "Inputs": [
  {
    "Name": "1446",
    "Location": "Device",
    "Dimensions": [4,118,32,88],
    "Format/Datatype": "Thirty-two wide channel vectorized row major FP16 format"
  }],
  "Outputs": [
  {
    "Name": "1451",
    "Location": "Device",
    "Dimensions": [4,118,32,88],
    "Format/Datatype": "Row major linear FP16 format"
  }],
  "ParameterType": "Reformat",
  "Origin": "SLICE",
  "TacticValue": "0x00000000000003ea",
  "StreamId": 0,
  "Metadata": "[ONNX Layer: Slice_851]"
},{
  "Name": "Softmax_852",
  "LayerType": "CaskSoftMaxV2",
  "Inputs": [
  {
    "Name": "1451",
    "Location": "Device",
    "Dimensions": [4,118,32,88],
    "Format/Datatype": "Row major linear FP16 format"
  }],
  "Outputs": [
  {
    "Name": "camera_depth_weights",
    "Location": "Device",
    "Dimensions": [4,118,32,88],
    "Format/Datatype": "Row major linear FP16 format"
  }],
  "ParameterType": "SoftMax",
  "Axes": 2,
  "HasLog": 0,
  "TacticValue": "0xd49ab000cdcd2713",
  "StreamId": 0,
  "Metadata": "[ONNX Layer: Softmax_852]"
},{
  "Name": "Reformatting CopyNode for Input Tensor 0 to Transpose_858",
  "LayerType": "Reformat",
  "Inputs": [
  {
    "Name": "1446",
    "Location": "Device",
    "Dimensions": [4,80,32,88],
    "Format/Datatype": "Thirty-two wide channel vectorized row major FP16 format"
  }],
  "Outputs": [
  {
    "Name": "Reformatted Input Tensor 0 to Transpose_858",
    "Location": "Device",
    "Dimensions": [4,80,32,88],
    "Format/Datatype": "Row major linear FP16 format"
  }],
  "ParameterType": "Reformat",
  "Origin": "REFORMAT",
  "TacticValue": "0x00000000000003ea",
  "StreamId": 0,
  "Metadata": ""
},{
  "Name": "Transpose_858",
  "LayerType": "Shuffle",
  "Inputs": [
  {
    "Name": "Reformatted Input Tensor 0 to Transpose_858",
    "Location": "Device",
    "Dimensions": [4,80,32,88],
    "Format/Datatype": "Row major linear FP16 format"
  }],
  "Outputs": [
  {
    "Name": "camera_feature",
    "Location": "Device",
    "Dimensions": [4,32,88,80],
    "Format/Datatype": "Row major linear FP16 format"
  }],
  "ParameterType": "Shuffle",
  "FirstTranspose": [0,2,3,1],
  "Reshape": "nbDims=-1",
  "SecondTranspose": [0,1,2,3],
  "ZeroIsPlaceholder": 1,
  "TacticValue": "0x0000000000000001",
  "StreamId": 0,
  "Metadata": "[ONNX Layer: Transpose_858]"
}],
"Bindings": ["img"
,"depth"
,"camera_depth_weights"
,"camera_feature"
]}
